model/checkpoints/model_a_epoch_20.pth (torch, 708451 bytes, 20 tensors)

network.0.weight f4 [256, 512]
-0.026269991 -0.05818961 0.1617918 -0.057888314 0.09382099 0.13510533 0.01265121 -0.00026581777
-0.09630988 0.18217622 -0.04247205 -0.021879226 0.15967375 -0.037388697 -0.0074102157 -0.015332847
-0.08740854 -0.016528647 -0.14348155 0.08850678 0.0037963127 -0.059505563 -0.015026122 -0.019294748
-0.11924433 0.10402859 -0.079933554 0.015628472 -0.04721962 0.060142897 -0.10360144 -0.017160993
0.0061082416 0.0004282001 -0.002779951 0.01244783 0.13179141 -0.0016498838 -0.028498942 -0.051620632
-0.08337369 0.036442325 0.06537375 0.13223433 0.05068298 -0.042939235 0.12324724 0.00952566
0.09176315 0.16216373 0.024607463 -0.07656074 -0.046551723 0.1939177 0.12600976 -0.014794483
-0.15149216 -0.10222325 0.015050717 0.079542644 -0.19700758 -0.017075142 -0.25552183 0.049835317
0.036530953 0.024055406 0.1350486 0.00020311016 -0.06586104 -0.13352378 0.09883967 -0.054712333
-0.024885837 -0.005217224 -0.11338469 0.14322788 0.0757184 -0.006060491 0.17174758 0.11414377
-0.0740568 0.102657296 -0.2717655 0.041946847 -0.013102743 -0.06731967 0.053194184 0.1460203
0.02403616 0.026039788 0.101757154 -0.016351871 -0.061390735 -0.121057235 0.048763067 0.069145255
-0.03462353 -0.08633412 -0.023187926 -0.013876902 0.054574177 -0.076710984 0.12021119 -0.022298446
-0.04488629 -0.04629304 0.023167422 0.040382765 0.19162446 0.093727015 -0.110362194 0.004825705
-0.034478176 -0.002789454 -0.16950506 0.19292568 0.04880152 0.0005621161 0.06124607 0.07358253
0.12197096 0.19766374 -0.037185173 -0.019085081 0.14182594 0.11114565 0.029896542 0.028349305
0.006344022 -0.03388197 -0.08042943 -0.028117785 0.03457558 0.13421519 0.03829223 -0.16726278
0.16703355 -0.037284896 -0.1598269 -0.04759501 -0.061636712 -0.12430716 -0.12846908 0.059424207
0.033635493 0.24685138 0.19316013 0.08448722 -0.054236516 -0.14609629 -0.103965044 -0.07377433
0.024410158 -0.030176282 0.1639892 -0.06821696 -0.07627596 0.07153246 0.06678627 0.14481582
-0.06038211 -0.0057314136 0.08197137 -0.044528082 0.047340054 0.031058338 -0.016876716 0.06315726
-0.11249841 -0.11901091 0.044313308 -0.03806482 0.028188828 -0.06142976 0.04215518 -0.24938494
0.042845726 -0.0024953375 -0.1243449 0.08258703 0.018632174 0.09272723 0.025456889 0.14510082
0.04425242 0.049968548 0.21833792 0.034363527 0.021194343 0.050328642 0.031308133 0.058916166
-0.15777914 -0.07426357 -0.01880985 -0.040155586 0.064063795 0.009637073 0.15924317 -0.001893319
-0.18190545 0.019270621 -0.08347885 0.024738036 0.011468858 0.059042472 -0.017974727 -0.05841056
0.032973815 -0.063154966 -0.021112088 -0.051778343 -0.010493567 -0.0149019025 0.012578693 0.12991388
-0.0065486818 -0.019202989 -0.008816665 0.10143689 -0.011549934 -0.034844305 -0.018910866 0.070458345
0.12317823 -0.024748448 -0.067960344 0.06865999 -0.064745426 0.006346507 0.043462645 -0.0061322837
-0.04980701 -0.045894638 -0.09252205 0.049473904 0.06578639 -0.092988044 0.025753895 0.05203897
-0.14977951 -0.03657074 0.02879427 0.021827009 -0.07718425 0.070140265 -0.028572584 0.010827251
0.07990985 -0.016604636 -0.11719949 0.060291037 0.05132045 0.06696287 0.08198378 0.12105948
00000000: 2a34 d7bc 3a58 6ebd c0ac 253e 4c1c 6dbd
00000010: 3825 c03d 0d59 0a3e 0547 4f3c 755d 8bb9
00000020: 1d3e c5bd 678c 3a3e 2cf7 2dbd 103c b3bc
00000030: 8481 233e e424 19bd 65d1 f2bb 9f36 7bbc
00000040: 4003 b3bd 1667 87bc d4ec 12be 0b43 b53d
00000050: 8fcb 783b 1bbc 73bd 2030 76bc 0510 9ebc
00000060: 5f36 f4bd f10c d53d 34b4 a3bd 4807 803c
00000070: 5c69 41bd 6658 763d fe2c d4bd 3695 8cbc
00000080: a527 c83b 0b80 e039 d72f 36bb fcf1 4b3c
00000090: 54f4 063e ea40 d8ba 9d76 e9bc 2870 53bd
000000a0: d3bf aabd 8c44 153d ace2 853d 7068 073e
000000b0: f598 4f3d 0de1 2fbd 0d69 fc3d 8411 1c3c
000000c0: 52ee bb3d 400e 263e 9795 c93c e1cb 9cbd
000000d0: 05ad 3ebd 5d92 463e b408 013e 8f64 72bc
000000e0: c320 1bbe 6c5a d1bd 4897 763c 41e7 a23d
000000f0: 5bbc 49be 2be1 8bbc c2d3 82be 1e20 4c3d
00000100: 7ba1 153d d80f c53c 2e4a 0a3e f8f9 5439
00000110: 27e2 86bd 75ba 08be 746c ca3d 0a1a 60bd
00000120: 62dd cbbc 3ff5 aabb 3b36 e8bd 54aa 123e
00000130: 4012 9b3d 1597 c6bb 99de 2f3e 35c4 e93d
00000140: 17ab 97bd fd3d d23d d924 8bbe 75d0 2b3d
00000150: e3ac 56bc e5de 89bd 25e2 593d 5886 153e
00000160: 7be7 c43c 6551 d53c 0e66 d03d 5cf4 85bc
00000170: da74 7bbd dbec f7bd c8bb 473d 079c 8d3d
00000180: 67d1 0dbd f1cf b0bd 9bf4 bdbc f25b 63bc
00000190: 2c89 5f3d a61a 9dbd 4931 f63d 3bab b6bc
000001a0: b0da 37bd c59d 3dbd 9bc9 bd3c 6668 253d
000001b0: 3439 443e f3f3 bf3d 9305 e2bd f320 9e3b
000001c0: fd38 0dbd 46cf 36bb bc92 2dbe 4f8e 453e
000001d0: 1ae4 473d f95a 133a 29dd 7a3d 70b2 963d
000001e0: e9cb f93d 5d68 4a3e 7b4f 18bd 5158 9cbc
000001f0: d23a 113e 55a0 e33d 98e9 f43c cd3c e83c
00000200: 84e1 cf3b d2c7 0abd 2fb8 a4bd 4557 e6bc
00000210: 209f 0d3d b56f 093e 50d8 1c3d ef46 2bbe
00000220: d80a 2b3e 0cb8 18bd aaa9 23be fcf2 42bd
00000230: c776 7cbd c194 febd 668d 03be cc66 733d
00000240: 5fc5 093d 9cc6 7c3e c5cb 453e a307 ad3d
00000250: 1c27 5ebd 449a 15be a0eb d4bd ff16 97bd
00000260: d0f7 c73c 4034 f7bc c9ec 273e 55b5 8bbd
00000270: 9236 9cbd 9c7f 923d 3dc7 883d 994a 143e
00000280: 3b53 77bd 95ce bbbb 9be0 a73d 1463 36bd
00000290: a5e7 413d 0e6e fe3c 0a41 8abc 9858 813d
000002a0: 9165 e6bd febb f3bd df81 353d dbe9 1bbd
000002b0: 42ec e63c c69d 7bbd e9aa 2c3d c45e 7fbe
000002c0: 007f 2f3d d188 23bb 8aa8 febd 6423 a93d
000002d0: 80a2 983c c6e7 bd3d f78a d03c 4f95 143e
000002e0: 0742 353d d2ab 4c3d fa93 5f3e c5c0 0c3d
000002f0: c29f ad3c 6825 4e3d f53c 003d 1452 713d
00000300: db90 21be 8017 98bd 1d17 9abc 2f7a 24bd
00000310: e133 833d d0e4 1d3c a410 233e 3e29 f8ba
00000320: 6c45 3abe 6cdd 9d3c f6f6 aabd 6ca7 ca3c
00000330: e1e7 3b3c 85d6 713d bc3f 93bc e93f 6fbd
00000340: 8d0f 073d 6457 81bd 42f3 acbc 8715 54bd
00000350: 36ed 2bbc 1c27 74bc dd16 4e3c 2508 053e
00000360: 5396 d6bb 964f 9dbc c673 10bc 25be cf3d
00000370: ef3b 3dbc e7b8 0ebd f6ea 9abc 774c 903d
00000380: de44 fc3d 42bd cabc cb2e 8bbd 9c9d 8c3d
00000390: 4099 84bd 5cf6 cf3b e305 323d 53f1 c8bb
000003a0: 6f02 4cbd 04fc 3bbd 337c bdbd 26a5 4a3d
000003b0: 04bb 863d 8470 bebd d5f9 d23c d126 553d
000003c0: cd5f 19be 33cb 15bd f6e1 eb3c 8ece b23c
000003d0: c712 9ebd b3a5 8f3d 0d11 eabc c864 313c
000003e0: c7a7 a33d 7206 88bc 4906 f0bd bcf3 763d
000003f0: 6435 523d d423 893d 1de7 a73d 08ee f73d

network.0.bias f4 [256]
4.8086804e-06 3.9075374e-05 2.6458249e-05 0.000135255 4.574327e-05 5.0324506e-05 1.5355705e-05 6.6855864e-05
2.4302226e-05 -2.7447037e-05 -3.1295458e-05 -2.7331422e-05 1.16728015e-05 1.1384936e-05 -2.8905368e-05 2.455535e-05
-3.2915115e-05 3.395207e-05 2.8670594e-05 -2.6724643e-05 2.7706536e-05 1.7625371e-06 -7.1769944e-05 1.4267556e-05
1.8302107e-05 -5.297019e-05 9.916626e-05 -2.9617495e-06 -7.237667e-05 1.646082e-05 9.491918e-05 -2.7540036e-06
-1.0259091e-05 0.00014931828 -1.3395659e-05 -4.284481e-05 -5.549936e-05 -3.0189458e-06 4.290628e-05 1.2209745e-05
2.014262e-05 -5.515711e-05 -1.229241e-05 8.4865664e-05 5.440364e-05 -3.3977263e-05 6.714805e-05 7.123696e-05
1.544798e-05 -5.2145497e-05 -9.240902e-06 -3.752117e-05 -7.663971e-05 1.3186691e-06 2.0106e-06 -9.668178e-06
-1.3865281e-05 -1.1898646e-07 -8.883708e-06 3.3609358e-05 -4.04793e-05 -2.3700795e-05 -7.6221404e-06 1.4803231e-06
3.1287464e-06 -4.1782645e-05 -5.940408e-05 9.6763906e-05 3.3332566e-05 3.1860603e-05 -5.4028125e-05 1.8844557e-06
1.0063694e-05 1.5336636e-05 4.0614952e-05 2.2764447e-05 -1.9446237e-05 7.477707e-05 -6.553689e-05 -3.400226e-05
-5.8364585e-05 2.3959677e-05 -2.1207941e-05 2.8711227e-05 -3.9343242e-05 4.926684e-05 -7.069608e-05 -3.0335228e-05
2.9190032e-05 -5.05418e-05 -1.04160845e-05 2.0531752e-06 -2.3633285e-05 3.0050664e-05 7.35143e-05 -5.9738937e-05
2.5508614e-05 -8.32735e-05 3.4464876e-05 -7.95826e-05 9.5868076e-05 -1.4255137e-05 0.00011528779 -2.4316864e-07
1.6211166e-05 3.7777078e-05 4.6866964e-05 -4.1482876e-05 2.193886e-05 5.266432e-05 7.0995644e-05 4.388272e-05
2.5588355e-05 -5.3854314e-05 -1.2634187e-05 -1.605001e-05 2.3381528e-05 1.7554808e-05 2.5960657e-05 -5.2382296e-05
-9.1017195e-05 -0.00012219815 -3.5973953e-05 5.0455463e-05 -1.30815215e-05 1.4046475e-05 2.6631207e-05 -6.612243e-05
-8.4237356e-05 4.8419723e-05 1.04562205e-05 -6.6689154e-07 -2.9817027e-05 -3.5651945e-05 3.324806e-05 9.853015e-06
-2.2011256e-05 3.219044e-05 -0.00010916981 2.5540305e-05 4.6230365e-05 -6.6506555e-06 7.381672e-06 0.00011474444
1.5558606e-05 3.7053695e-05 2.3255321e-05 -8.270791e-05 4.2931642e-05 4.315837e-05 -0.00012334708 2.1162065e-05
5.838372e-05 -7.892663e-05 2.3083143e-05 2.1738333e-05 1.6885642e-05 -5.546826e-05 1.2073169e-06 1.2477089e-05
-4.0287625e-05 -3.3475975e-05 2.8127211e-05 -2.7708e-05 -7.363161e-05 -3.1157997e-05 4.658241e-05 -5.518885e-05
-1.4769539e-06 -6.199861e-05 0.00012639107 -2.155256e-05 -3.8454935e-05 -3.828956e-05 2.6459476e-05 5.679984e-05
-5.983384e-05 -7.5998632e-06 -2.787144e-05 -7.983496e-05 8.339799e-05 2.4940946e-05 -2.052258e-05 6.4900782e-06
-9.8449644e-05 -9.022465e-05 3.1019963e-06 6.0698158e-06 1.8288676e-05 -5.3636562e-05 1.637929e-05 9.817408e-05
-3.5866005e-06 2.5904606e-05 -3.162068e-06 2.1115746e-05 -1.2281943e-05 4.10355e-05 -3.2802556e-05 -2.4942989e-05
7.165099e-05 2.040247e-05 -1.230337e-05 2.0199554e-05 -6.7994726e-05 3.5449957e-05 3.5824498e-05 -5.7402136e-05
5.8211835e-06 2.0690086e-06 -4.038584e-05 -6.7241162e-06 -2.6621348e-05 -4.234036e-06 5.8851816e-05 2.4644842e-05
-1.4886189e-05 -4.5627014e-05 5.2950934e-05 -5.143488e-05 -0.00020440084 -1.4251054e-06 -9.886916e-05 4.013032e-05
-8.749007e-06 -4.394481e-05 6.1155326e-05 -4.515623e-05 8.171175e-05 -2.8166261e-05 -2.633523e-05 7.6824645e-06
-0.00017834018 2.551048e-05 3.147318e-05 3.2230593e-05 -3.1824224e-05 -5.559968e-05 -2.2724449e-05 6.093202e-06
2.0501411e-06 -1.4604975e-05 2.6686877e-05 5.106901e-05 8.5765714e-05 -8.689628e-05 3.4234374e-05 -4.3382664e-05
4.0487146e-05 2.102262e-06 -1.3989632e-05 -8.006572e-06 1.5827489e-05 5.335182e-05 -5.8899197e-05 3.4852743e-05
00000000: 405a a136 dde4 2338 a8f2 dd37 3dd3 0d39
00000010: 76dc 3f38 8713 5338 20d0 8037 f834 8c38
00000020: a2dc cb37 103e e6b7 3e43 03b8 c845 e5b7
00000030: 4dd6 4337 ee01 3f37 ce79 f2b7 36fc cd37
00000040: 560e 0ab8 c267 0e38 a281 f037 bc2e e0b7
00000050: 556b e837 5090 ec35 3283 96b8 b05e 6f37
00000060: 7a87 9937 4f2c 5eb8 7bf7 cf38 78c2 46b6
00000070: eec8 97b8 5715 8a37 590f c738 6cd1 38b6
00000080: 761e 2cb7 5292 1c39 ebbd 60b7 44b4 33b8
00000090: fcc7 68b8 1899 4ab6 44f6 3338 75d8 4c37
000000a0: f2f7 a837 7f58 67b8 803b 4eb7 e8f9 b138
000000b0: 772f 6438 cf82 0eb8 d6d1 8c38 0d65 9538
000000c0: 4996 8137 cdb6 5ab8 5f09 1bb7 0d60 1db8
000000d0: a2b9 a0b8 20fd b035 d8ed 0636 8234 22b7
000000e0: ee9e 68b7 8085 ffb3 3c0b 15b7 c6f7 0c38
000000f0: 51c8 29b8 12d1 c6b7 b0c1 ffb6 84af c635
00000100: 74f7 5136 c63f 2fb8 a528 79b8 baed ca38
00000110: 92ce 0b38 10a2 0538 429c 62b8 68ed fc35
00000120: 3dd7 2837 2da7 8037 f959 2a38 47f6 be37
00000130: 7a20 a3b7 a2d1 9c38 da70 89b8 a69d 0eb8
00000140: 7fcc 74b8 04fd c837 b5e7 b1b7 e4d8 f037
00000150: 7c04 25b8 dea3 4e38 ab42 94b8 6878 feb7
00000160: 1edd f437 d8fc 53b8 bec0 2eb7 48c9 0936
00000170: 1840 c6b7 4f15 fc37 b02b 9a38 3290 7ab8
00000180: 55fb d537 1fa3 aeb8 618e 1038 95e5 a6b8
00000190: c80c c938 5929 6fb7 a9c6 f138 d88c 82b4
000001a0: 37fd 8737 d472 1e38 0593 4438 e6fd 2db8
000001b0: 5809 b837 e2e3 5c38 7fe3 9438 b60e 3838
000001c0: 93a6 d637 a1e1 61b8 6cf7 53b7 22a3 86b7
000001d0: 7323 c437 aa42 9337 16c6 d937 10b5 5bb8
000001e0: 7ce0 beb8 5122 00b9 bde2 16b8 24a0 5338
000001f0: b578 5bb7 27a9 6b37 1566 df37 36ab 8ab8
00000200: 96a8 b0b8 4816 4b38 206d 2f37 7004 33b5
00000210: 941f fab7 fc88 15b8 d573 0b38 614e 2537
00000220: d0a4 b8b7 3904 0738 18f2 e4b8 633f d637
00000230: 7ae7 4138 b228 dfb6 14b0 f736 f4a2 f038
00000240: da83 8237 1a6a 1b38 6c14 c337 7973 adb8
00000250: 8011 3438 f204 3538 bb56 01b9 3085 b137
00000260: 0be1 7438 6985 a5b8 aca2 c137 b75a b637
00000270: a4a5 8d37 97a6 68b8 180b a235 b054 5137
00000280: 82fa 28b8 8e68 0cb8 baf2 eb37 7a6e e8b7
00000290: ab6a 9ab8 a5af 02b8 7b61 4338 947a 67b8
000002a0: c03b c6b5 4005 82b8 d887 0439 c5cb b4b7
000002b0: ac4a 21b8 1a99 20b8 4bf5 dd37 5d3c 6e38
000002c0: 19f6 7ab8 5402 ffb6 76cd e9b7 116d a7b8
000002d0: f4e5 ae38 4638 d137 e827 acb7 59c5 d936
000002e0: c076 ceb8 fd36 bdb8 e42b 5036 52ab cb36
000002f0: a26a 9937 d2f7 60b8 4266 8937 cfe2 cd38
00000300: 54b1 70b6 b84d d937 ea33 54b6 b821 b137
00000310: 8b0e 4eb7 881d 2c38 7a95 09b8 a93c d1b7
00000320: 5543 9638 f925 ab37 926a 4eb7 3672 a937
00000330: 6498 8eb8 1ab0 1438 4342 1638 13c3 70b8
00000340: 9653 c336 4cd9 0a36 f763 29b8 b89f e1b6
00000350: e950 dfb7 1812 8eb6 a8d7 7638 65bc ce37
00000360: b2bf 79b7 a25f 3fb8 a217 5e38 c8bb 57b8
00000370: 6f54 56b9 4046 bfb5 fa57 cfb8 9a51 2838
00000380: b3c8 12b7 6151 38b8 8440 8038 2266 3db8
00000390: a95c ab38 9646 ecb7 7aea dcb7 efe3 0037
000003a0: d400 3bb9 57ff d537 1202 0438 562f 0738
000003b0: 007b 05b8 b433 69b8 62a0 beb7 3574 cc36
000003c0: 2895 0936 e407 75b7 a2dd df37 ef32 5638
000003d0: 1edd b338 163c b6b8 e196 0f38 c8f5 35b8
000003e0: bed0 2938 9614 0d36 03b5 6ab7 f753 06b7
000003f0: 46c5 8437 15c6 5f38 880a 77b8 d92e 1238

network.1.weight f4 [256]
1.0113279 0.99917936 0.99874485 1.001622 0.9998729 0.9940807 0.9900035 1.011319
0.996074 0.9864408 0.99522233 1.0059931 0.9925586 1.0176492 1.0199898 0.9822866
0.9905508 1.0021923 0.9980419 0.9911599 1.0033095 1.0127974 0.98764807 1.0062957
1.0011275 1.0088915 1.0027701 1.0015641 1.0209541 0.9897058 0.99929106 0.9893638
0.9848111 0.9876926 0.9859048 1.0123082 0.9824502 1.001478 1.003961 1.0073137
0.98623484 0.99933904 0.99962014 1.0004946 1.0026149 0.9950959 0.9944887 1.0103549
0.99957556 1.0043821 0.9905321 0.9942972 1.0001704 1.0170566 1.0170809 1.0061867
1.0062946 1.0069267 0.99836147 1.0076019 0.99564344 0.9966475 1.000211 1.0130522
1.0119058 0.9835951 0.99798465 0.99317425 1.0070914 1.0023947 0.99563974 0.99977285
1.0035728 0.99927694 0.9950752 1.0169371 1.0018973 1.0113068 0.99517834 0.9920243
1.0122075 0.99194276 1.0022498 1.0073905 0.9927557 0.9890019 0.9912264 0.99053174
0.98278105 1.0038724 0.9965413 1.0148253 1.0010452 0.99108195 0.99798846 0.9949765
0.99990094 1.0140489 1.0005668 0.9780313 0.9822804 1.0010008 0.98581207 1.0081004
0.99187714 0.9935545 0.9956876 1.0020906 0.9868463 1.0016063 0.99489164 0.99430287
1.0056565 1.0048918 0.9947023 1.0004151 0.99267524 0.99973416 0.9945426 0.99108046
1.010736 1.0073397 1.0218425 0.988604 0.99006826 1.013348 0.98854566 0.9991108
1.0138546 1.0029322 1.0012578 1.0024464 1.015231 0.9800454 0.984112 1.0015556
1.0018994 1.0036882 1.0087452 1.0038133 0.9816995 0.9990985 0.99879223 0.98376375
1.0163448 0.98867214 1.004508 1.022839 1.0049266 0.9968476 1.0078325 1.0163591
1.0079426 1.0168415 0.9840681 0.9935042 1.0113932 1.0101416 0.97917974 0.994034
1.0037107 0.9976503 0.993773 1.0155429 0.9866382 1.0146465 0.9913887 0.9959544
1.0045979 1.0101916 1.0001765 0.9917639 0.99634844 0.9967922 0.9987886 0.9866502
0.9993144 0.97856957 1.0037857 1.0101027 0.99525857 0.99884254 1.0044293 1.001061
0.9944395 1.0046378 0.98311603 0.9861206 1.006023 1.0144873 1.0004308 1.0102707
0.99861884 0.9886101 0.9849376 0.9969094 0.9970003 1.0047804 0.9830053 1.0016254
0.99928457 0.9985804 0.99255913 0.98652995 0.99004984 1.0084171 0.99156886 0.97504574
1.0097282 1.0082256 1.0161855 0.99758214 1.0097138 1.0114766 1.0149645 0.98919165
1.0186532 1.0053978 1.0074701 0.9831527 1.0128174 1.0003333 0.988663 1.0005795
1.0157969 1.0183117 1.005888 0.9955975 0.997893 1.000436 1.0025922 1.0011264
0.9920945 1.0011106 0.9854824 1.0059739 0.9931778 0.99399066 1.0011742 1.0037156
0.99742264 0.9976198 1.0141524 0.9996153 1.0086141 0.9986839 1.0136758 0.9959422
0.9945648 0.9983946 1.0090479 0.9978201 1.0001354 1.0161669 0.9931379 1.0105349
00000000: 3173 813f 38ca 7f3f bead 7f3f 2635 803f
00000010: acf7 7f3f 137c 7e3f df70 7d3f e772 813f
00000020: b5fe 7e3f 6287 7c3f e4c6 7e3f 62c4 803f
00000030: 5218 7e3f 5442 823f 078f 823f 2277 7b3f
00000040: bd94 7d3f d647 803f ad7f 7f3f a8bc 7d3f
00000050: 726c 803f 58a3 813f 81d6 7c3f 4cce 803f
00000060: f224 803f 5b23 813f c55a 803f 4133 803f
00000070: a0ae 823f 5c5d 7d3f 8ad1 7f3f f246 7d3f
00000080: 951c 7c3f 6cd9 7c3f 4264 7c3f 5193 813f
00000090: db81 7b3f 6e30 803f cb81 803f a8ef 803f
000000a0: e379 7c3f afd4 7f3f 1be7 7f3f 3510 803f
000000b0: af55 803f 9bbe 7e3f d096 7e3f 4f53 813f
000000c0: 2fe4 7f3f 988f 803f 8393 7d3f 438a 7e3f
000000d0: 9505 803f e92e 823f b52f 823f baca 803f
000000e0: 43ce 803f f9e2 803f 9e94 7f3f 19f9 803f
000000f0: 7de2 7e3f 4a24 7f3f ea06 803f b2ab 813f
00000100: 2186 813f e3cc 7b3f ec7b 7f3f ab40 7e3f
00000110: 5fe8 803f 784e 803f 3fe2 7e3f 1df1 7f3f
00000120: 1375 803f 9dd0 7f3f 40bd 7e3f ff2a 823f
00000130: 2c3e 803f 8072 813f 02c4 7e3f 4ef5 7d3f
00000140: 0490 813f f6ef 7d3f b949 803f 2cf2 803f
00000150: 3d25 7e3f 3b2f 7d3f 03c1 7d3f 7d93 7d3f
00000160: 8a97 7b3f e47e 803f 551d 7f3f cce5 813f
00000170: 4022 803f 8cb7 7d3f 2c7c 7f3f c8b6 7e3f
00000180: 82f9 7f3f 5bcc 813f 9312 803f 4260 7a3f
00000190: ba76 7b3f cb20 803f 2e5e 7c3f 6f09 813f
000001a0: a9eb 7d3f 9659 7e3f 62e5 7e3f 8144 803f
000001b0: f6a1 7c3f a334 803f 38b1 7e3f a28a 7e3f
000001c0: 5ab9 803f 4ba0 803f cfa4 7e3f 9a0d 803f
000001d0: f71f 7e3f 94ee 7f3f 589a 7e3f 73b7 7d3f
000001e0: cc5f 813f 82f0 803f bccb 823f 2715 7d3f
000001f0: 1d75 7d3f 63b5 813f 5411 7d3f bac5 7f3f
00000200: fdc5 813f 1560 803f 3729 803f 2a50 803f
00000210: 17f3 813f 41e4 7a3f c4ee 7b3f f932 803f
00000220: 3d3e 803f db78 803f 901e 813f f47c 803f
00000230: a950 7b3f ebc4 7f3f d9b0 7f3f f1d7 7b3f
00000240: 9617 823f 9e19 7d3f b893 803f 63ec 823f
00000250: 6fa1 803f 6831 7f3f a800 813f 0e18 823f
00000260: 4304 813f dd27 823f e3eb 7b3f 4b56 7e3f
00000270: 5575 813f 524c 813f 86ab 7a3f 0379 7e3f
00000280: 9879 803f 0366 7f3f e867 7e3f 4ffd 813f
00000290: 5294 7c3f f0df 813f a6cb 7d3f def6 7e3f
000002a0: aa96 803f f54d 813f c905 803f 3de4 7d3f
000002b0: b110 7f3f c62d 7f3f 9cb0 7f3f 1c95 7c3f
000002c0: 12d3 7f3f 8983 7a3f 0d7c 803f 0c4b 813f
000002d0: 44c9 7e3f 25b4 7f3f 2491 803f c422 803f
000002e0: 9693 7e3f f997 803f 7ead 7b3f 6672 7c3f
000002f0: 5dc5 803f b8da 813f 1e0e 803f 8d50 813f
00000300: 7ca5 7f3f 8d15 7d3f df24 7c3f 7435 7f3f
00000310: 693b 7f3f a59c 803f 3ca6 7b3f 4335 803f
00000320: 1dd1 7f3f f7a2 7f3f 5b18 7e3f 3a8d 7c3f
00000330: e873 7d3f d013 813f 75d7 7d3f 999c 793f
00000340: c63e 813f 890d 813f 5e12 823f 8b61 7f3f
00000350: 4d3e 813f 1178 813f 5bea 813f aa3b 7d3f
00000360: 3a63 823f e0b0 803f c8f4 803f e5af 7b3f
00000370: 00a4 813f ec0a 803f 0519 7d3f fd12 803f
00000380: a205 823f 0a58 823f f0c0 803f 7adf 7e3f
00000390: ea75 7f3f 490e 803f f154 803f e924 803f
000003a0: e8f9 7d3f 6424 803f 9348 7c3f c1c3 803f
000003b0: e640 7e3f 2c76 7e3f 7a26 803f c179 803f
000003c0: 1757 7f3f 0364 7f3f bfcf 813f cae6 7f3f
000003d0: 441a 813f c0a9 7f3f 21c0 813f 11f6 7e3f
000003e0: cc9b 7e3f ca96 7f3f 7b28 813f 2371 7f3f
000003f0: 7004 803f c211 823f 493e 7e3f 3559 813f

network.1.bias f4 [256]
0.008932749 0.0025724084 -0.0065002395 -0.011899842 0.0011975925 -0.013828633 -0.0043560383 0.009934171
-0.0010746531 -0.019314785 -0.00069830066 -0.0018287842 0.0069060214 0.013915683 0.022619717 -0.006888986
-0.008734273 -0.0006254861 0.007027399 -0.008723067 -0.0044400454 0.0052056247 -0.010241788 0.006079502
-0.0008479834 0.004634992 0.0011806649 0.0003047772 0.018693712 0.0039590183 0.004856634 -0.01282472
-0.0022626077 -0.009735859 -0.011051941 0.004003155 -0.019183774 -0.014626978 0.0054810992 0.0023621484
-0.011673992 0.0025711616 -0.009475466 0.0022129808 -0.00085656537 -0.0023877204 0.001420764 0.0057642316
-0.0077634775 0.0005930553 -0.01094317 -0.0063236165 -0.011621886 0.008056165 0.009117746 0.0035245686
0.0042161215 0.0124799125 0.0036039916 0.0029284991 0.0068070255 -0.0047654277 -0.0009273708 0.010366189
0.0056676273 -0.011091212 -0.0064878264 -0.0041372795 0.006793054 0.0029661576 -0.00093226315 -0.00096958276
0.0018389635 -0.0007052553 -0.005001872 0.013615264 -0.0051671616 0.007314921 -0.002103569 -0.013976092
0.011153551 0.0007314659 -0.0018761747 0.007994255 -0.008498252 -0.013434115 0.00034665345 -0.0027798533
-0.011384432 0.002576527 9.703888e-05 0.021021083 -0.0045007407 -0.0016276194 0.0003624972 -0.0062828218
-0.009305205 0.0047828206 0.0035867412 -0.021826077 -0.0125808325 0.0069003273 -0.011426586 0.010103171
-0.0055664894 -0.0046177497 -0.012914038 0.003527718 -0.0108146295 0.0016169073 -0.00038092004 -0.004561234
-0.00019354014 -0.022841012 -0.007066863 -0.00057770434 -0.003924662 0.0021196224 0.0023696125 -0.009498521
0.011696219 0.0029046591 0.01817585 -0.013576415 -0.0061491504 0.008923081 -0.0077784103 -0.007831029
0.013361963 0.010235506 0.0015963485 0.004839035 0.014964881 -0.011127229 -0.016648374 -0.006396826
0.005609237 -0.001115185 0.008250914 0.009044645 -0.017197808 0.008156627 0.0006163691 -0.009810515
0.013360097 -0.0059672995 0.0052871853 0.0145904645 0.00015971853 -0.0027909735 0.00253767 0.020940129
0.0048225773 0.009173578 -0.011501907 -0.0016554064 0.010363013 -0.0015879729 -0.0156082725 -0.0056674895
0.007154727 0.001181723 -0.010521008 0.004848532 -0.013571424 0.007469419 -0.01641533 -0.0023851462
-0.00044543977 0.007908022 -0.0041374704 -0.008194164 -0.008014191 -0.006701622 0.0029685255 -0.01110052
-0.0035989857 -0.023150476 0.002004282 0.010179868 0.0066399467 -0.0060493425 0.0041422388 0.004278085
-0.008172341 0.000899856 -0.014654673 -0.018611241 -0.003401109 0.017290264 0.008650569 0.008958364
0.003937084 -0.011437422 -0.015836388 -0.0065108626 0.002797943 0.01011214 -0.015080996 -0.009434078
-0.004921813 0.0128814215 -0.012174889 -0.013634384 -0.009991362 0.012927245 -0.0039405804 -0.017793657
0.008119631 0.00996935 0.012822198 -0.0010772448 -0.0028695415 0.013421738 0.005338932 -0.011786199
0.015657783 0.01146516 0.006193395 -0.0106007485 0.007895388 -0.0027117345 -0.011144489 -0.0013174808
0.0072716055 0.021427749 0.013490859 0.0023823103 0.0055072694 -0.0054417276 0.009591433 0.0016510227
-0.007882143 0.0059463764 -0.016240524 0.001134805 5.8203575e-05 -0.00043141693 -0.00064377894 -0.00482114
-0.0043009194 -0.00069626956 0.010559979 -0.008338422 0.0078069335 -0.0011228251 0.0031806186 -0.00830238
-0.005150934 -0.0019173435 0.008876492 -0.0068842024 0.010301038 0.015860137 -0.0077297254 -0.0038498454
00000000: aa5a 123c da95 283b f6ff d4bb 8ef7 42bc
00000010: 89f8 9c3a 7e91 62bc 19bd 8ebb efc2 223c
00000020: 60db 8cba 0a3a 9ebc 2a0e 37ba d1b3 efba
00000030: e84b e23b 9bfe 633c fc4c b93c 01bd e1bb
00000040: 321a 0fbc a9f7 23ba 1846 e63b 32eb 0ebc
00000050: cd7d 91bb f293 aa3b 2ccd 27bc 8f36 c73b
00000060: 344b 5eba 22e1 973b 8ac0 9a3a 81ca 9f39
00000070: 8e23 993c a7ba 813b 6624 9f3b c61e 52bc
00000080: 4248 14bb 2783 1fbc 3313 35bc e62c 833b
00000090: 4a27 9dbc fea5 6fbc cb9a b33b 46ce 1a3b
000000a0: 4544 3fbc ef80 283b fc3e 1bbc a807 113b
000000b0: 218b 60ba 4d7b 1cbb ee38 ba3a e1e1 bc3b
000000c0: c564 febb 4477 1b3a fb4a 33bc 5736 cfbb
000000d0: b969 3ebc 01fe 033c 9962 153c 73fc 663b
000000e0: 6427 8a3b 8c78 4c3c f230 6c3b 10ec 3f3b
000000f0: 780d df3b 4e27 9cbb cd1a 73ba f3d6 293c
00000100: 81b7 b93b eab7 35bc d597 d4bb 0492 87bb
00000110: 4498 de3b de63 423b 1f63 74ba 992b 7eba
00000120: 6009 f13a e2e0 38ba bee6 a3bb 8e12 5f3c
00000130: 4b51 a9bb 01b2 ef3b 08dc 09bb fbfb 64bc
00000140: 62bd 363c d8bf 3f3a fae9 f5ba 56fa 023c
00000150: 413c 0bbc c31a 5cbc 0abf b539 332e 36bb
00000160: c585 3abc f3da 283b 5a81 cb38 6834 ac3c
00000170: f37a 93bb d855 d5ba 8d0d be39 21e0 cdbb
00000180: dc74 18bc 35b9 9c3b 880f 6b3b 9acc b2bc
00000190: d61f 4ebc 241c e23b 9336 3bbc c587 253c
000001a0: 1967 b6bb 7e50 97bb 6795 53bc 4931 673b
000001b0: d82f 31bc 68ee d33a 39b6 c7b9 6776 95bb
000001c0: 09f1 4ab9 131d bbbc 2591 e7bb 1571 17ba
000001d0: 739a 80bb 5de9 0a3b 804b 1b3b af9f 1bbc
000001e0: 80a1 3f3c 185c 3e3b 85e5 943c 9d6f 5ebc
000001f0: d07e c9bb 1d32 123c 09e2 febb b74d 00bc
00000200: 23ec 5a3c d3b2 273c 913c d13a c590 9e3b
00000210: 432f 753c fb4e 36bc 2c62 88bc 779c d1bb
00000220: b1cd b73b 662b 92ba d72e 073c fe2f 143c
00000230: 6be2 8cbc 60a3 053c d593 213a 48bc 20bc
00000240: 4fe4 5a3c 5689 c3bb 2040 ad3b d80c 6f3c
00000250: 1e7a 2739 c4e8 36bb 0a4f 263b a28a ab3c
00000260: b606 9e3b c64c 163c 7f72 3cbc 39fa d8ba
00000270: a0c9 293c 8723 d0ba d7b9 7fbc 59b6 b9bb
00000280: 3372 ea3b 0be4 9a3a 4e60 2cbc 6fe0 9e3b
00000290: ae5a 5ebc 07c2 f43b 7179 86bc 1d50 1cbb
000002a0: ea89 e9b9 a690 013c 9e93 87bb d140 06bc
000002b0: f44d 03bc 4899 dbbb 988b 423b f5de 35bc
000002c0: f6dc 6bbb 11a6 bdbc 465a 033b 76c9 263c
000002d0: e993 d93b 9039 c6bb 9ebb 873b 2e2f 8c3b
000002e0: 48e5 05bc 50e4 6b3a 271a 70bc 9a76 98bc
000002f0: 24e5 5ebb 50a4 8d3c 1ebb 0d3c 1ac6 123c
00000300: a802 813b 0664 3bbc 50bb 81bc 1359 d5bb
00000310: b25d 373b 64ad 253c 4816 77bc 6491 1abc
00000320: 2947 a1bb 990c 533c 3079 47bc c062 5fbc
00000330: cfb2 23bc cccc 533c fc1f 81bb 01c4 91bc
00000340: 3308 053c 7c56 233c 3214 523c 5632 8dba
00000350: eb0e 3cbb d9e6 5b3c 35f2 ae3b e71a 41bc
00000360: c044 803c 5ed8 3b3c f6f1 ca3b c3ae 2dbc
00000370: a85b 013c 5bb7 31bb 6097 36bc 52af acba
00000380: a646 ee3b 3f89 af3c c408 5d3c 8920 1c3b
00000390: 5376 b43b 8550 b2bb 6325 1d3c 2167 d83a
000003a0: 1b24 01bc d2d9 c23b d90a 85bc bdbd 943a
000003b0: 9d1f 7438 cd2f e2b9 46c3 28ba a7fa 9dbb
000003c0: baee 8cbb dc85 36ba c303 2d3c e09d 08bc
000003d0: 4ed1 ff3b c22b 93ba ed71 503b b506 08bc
000003e0: 2bc9 a8bb 5f4f fbba b56e 113c e094 e1bb
000003f0: afc5 283c 1eed 813c a349 fdbb b04d 7cbb

network.1.running_mean f4 [256]
0.12642646 0.14734185 -0.22025228 -0.22211528 0.32434663 0.10631667 0.26922393 0.22193818
0.02016494 0.36225444 0.220348 -0.2342958 -0.21075167 -0.15210797 0.3812611 -0.10761609
-0.07446771 0.12076318 -0.159712 0.18477467 -0.16520205 -0.47101942 0.14134517 -0.17229174
-0.29328838 0.15457948 0.052374046 0.24377333 0.30200562 -0.10053225 -0.27483124 0.06472079
-0.023723084 -0.16387706 0.2536584 -0.21494779 -0.051854603 0.3661819 -0.27004647 0.09385447
0.16744457 0.1260536 0.20765096 0.07438647 -0.19398552 0.051623665 0.002276715 0.09532892
0.04966276 -0.0280226 0.27296117 -0.310032 -0.083449714 -0.023457877 -0.18977875 0.07365144
-0.06252238 -0.1590305 -0.06986025 -0.124387965 0.1535845 -0.13803563 0.12009272 0.13273951
0.0152401235 -0.08919269 0.2274253 0.13384601 0.0756347 0.16878478 -0.42175403 -0.2579253
0.21028106 -0.34234762 0.11587933 0.32677358 0.19966549 -0.18780006 -0.29217434 -0.16388118
-0.03981989 0.20838591 0.23861709 -0.2530746 0.08859639 -0.3068866 0.20691204 -0.118555084
-0.10359171 0.026954368 0.1651658 -0.119685605 -0.042733084 0.07572769 -0.0009360742 0.050155327
0.018614236 0.38626936 0.18746015 -0.1368517 0.36725277 0.2770521 -0.050054133 0.24009028
0.116462775 -0.15811867 0.12241193 0.114996776 0.17361273 -0.17338747 -0.0076854597 -0.14304955
-0.064347625 0.09597738 0.15118453 0.040060274 -0.17894724 0.22670762 -0.039540093 -0.0032048635
0.2852661 -0.37344345 -0.029837705 -0.24297385 0.01524513 -0.2207526 0.20037496 0.0060050013
-0.16243406 0.21752365 -0.02948819 -0.08945965 -0.19562186 0.14705169 0.27835745 0.044337884
-0.27188763 0.14183804 -0.24827433 -0.09572629 0.008044091 0.0510591 -0.004134858 0.18701148
-0.07787949 0.26000243 -0.30445182 -0.16572773 -0.20017949 -0.13132796 0.080064386 0.16224414
0.0015233718 -0.155654 0.29558784 0.09065046 0.05315393 0.18271443 0.094733 -0.08076024
-0.033010624 -0.13269466 -0.07130333 -0.042323124 0.29334012 -0.07085035 0.16545308 0.23696706
0.13630241 -0.2689218 -0.030614218 -0.011909921 -0.042087033 0.25447318 -0.042414904 -0.11985033
0.1260829 0.17668116 -0.4044272 -0.3454918 -0.030182078 -0.18717086 0.021587525 0.091551855
-0.10214575 -0.04827157 -0.04507836 0.16238798 0.12967522 -0.15351708 0.22038965 0.15204911
-0.007024781 0.13849096 -0.15923616 0.084472984 0.053714957 -0.017645113 0.19556838 -0.17598593
0.3217028 0.09752862 -0.037204694 -0.0053337533 -0.17662583 -0.28026372 -0.16703369 -0.08028306
-0.30920684 0.20284918 0.01904421 -0.0046168673 0.22232628 -0.19283749 0.023433749 -0.39051175
0.06512693 -0.24809332 -0.14365289 -0.3355842 0.04208452 -0.04247475 0.17491911 -0.113302335
-0.19294855 0.20147482 -0.1412375 -0.3668517 -0.05134021 -0.005461179 0.0031731548 0.106528595
0.18949395 0.017944686 0.1065972 0.25372693 -0.085133396 -0.10810295 -0.4763521 0.115514226
-0.0730149 -0.07107266 -0.004070502 -0.09102428 -0.066655345 0.04499553 -0.25478685 0.06284758
-0.06061458 0.09882241 -0.30788457 -0.0630793 -0.34727046 -0.13296439 0.12043863 -0.1407789
00000000: f075 013e c8e0 163e d089 61be 3072 63be
00000010: c310 a63e 8ebc d93d b8d7 893e c343 633e
00000020: f230 a53c 6a79 b93e e8a2 613e 3deb 6fbe
00000030: 49cf 57be 31c2 1bbe a834 c33e d365 dcbd
00000040: 8782 98bd b052 f73d 8b8b 23be 9235 3d3e
00000050: ba2a 29be 7529 f1be cabc 103e 3f6d 30be
00000060: e529 96be 154a 1e3e 2b86 563d b79f 793e
00000070: 7ba0 9a3e dae3 cdbd aeb6 8cbe 558c 843d
00000080: ea56 c2bc 63cf 27be 84df 813e 461b 5cbe
00000090: 7e65 54bd 327c bb3e 8843 8abe c636 c03d
000000a0: 9776 2b3e 3214 013e 74a2 543e ef57 983d
000000b0: 24a4 46be 5673 533d f034 153b cf3b c33d
000000c0: 2e6b 4b3d a78f e5bc 91c1 8b3e 84bc 9ebe
000000d0: afe7 aabd bc2a c0bc 5c55 42be 91d6 963d
000000e0: bc0b 80bd e4d8 22be e412 8fbd 1ebf febd
000000f0: 4145 1d3e 3659 0dbe 2cf3 f53d deec 073e
00000100: b6b1 793c a8aa b6bd 2ee2 683e ee0e 093e
00000110: 5ee6 9a3d ebd5 2c3e 25f0 d7be c90e 84be
00000120: eb53 573e 3048 afbe 2452 ed3d de4e a73e
00000130: 1c75 4c3e a94e 40be e097 95be 78d0 27be
00000140: 2e1a 23bd 1e63 553e 0a58 743e fe92 81be
00000150: 0672 b53d 3e20 9dbe c0e0 533e 02cd f2bd
00000160: e427 d4bd 68cf dc3c 3921 293e ba1d f5bd
00000170: e308 2fbd 1e17 9b3d e062 75ba ac6f 4d3d
00000180: e27c 983c 19c5 c53e 8ef5 3f3e da22 0cbe
00000190: 8e08 bc3e c6d9 8d3e 9005 4dbd 3ada 753e
000001a0: 0984 ee3d dce9 21be 1bb3 fa3d 6e83 eb3d
000001b0: 89c7 313e 7c8c 31be 4fd6 fbbb 957b 12be
000001c0: b0c8 83bd ca8f c43d 1ed0 1a3e 3e16 243d
000001d0: f23d 37be 0b26 683e cbf4 21bd b008 52bb
000001e0: 660e 923e fb33 bfbe 346e f4bc 23ce 78be
000001f0: b6c6 793c f80c 62be 182f 4d3e 9ac5 c43b
00000200: 1d55 26be 85be 5e3e 3791 f1bc 9f36 b7bd
00000210: 1951 48be b894 163e de84 8e3e a49b 353d
00000220: db34 8bbe fe3d 113e a03b 7ebe 250c c4bd
00000230: 5dcb 033c 5923 513d b47d 87bb f07f 3f3e
00000240: 487f 9fbd 0a1f 853e 1ce1 9bbe 88b4 29be
00000250: dafb 4cbe d67a 06be ccf8 a33d 5423 263e
00000260: e0ab c73a c363 1fbe 4a57 973e f3a6 b93d
00000270: efb7 593d 7e19 3b3e 6003 c23d a065 a5bd
00000280: 2636 07bd 1ce1 07be 7b07 92bd 035b 2dbd
00000290: ad30 963e fd19 91bd 886c 293e 7ea7 723e
000002a0: dc92 0b3e 1eb0 89be abca fabc d421 43bc
000002b0: 7463 2cbd 4f4a 823e 40bb 2dbd 1774 f5bd
000002c0: e01b 013e e8eb 343e 1511 cfbe 4de4 b0be
000002d0: 6840 f7bc b8a9 3fbe 52d8 b03c 8a7f bb3d
000002e0: ca31 d1bd 69b8 45bd 16a4 38bd 0949 263e
000002f0: 95c9 043e 9533 1dbe d3ad 613e c3b2 1b3e
00000300: 2230 e6bb 93d0 0d3e ce0e 23be 2c00 ad3d
00000310: 3704 5c3d 7c8c 90bc 1443 483e a835 34be
00000320: 3bb6 a43e 16bd c73d f363 18bd c4c6 aebb
00000330: 67dd 34be ba7e 8fbe e10a 2bbe 726b a4bd
00000340: 5c50 9ebe b2b7 4f3e 9a02 9c3c 1749 97bb
00000350: 80a9 633e 3177 45be 22f8 bf3c 28f1 c7be
00000360: 4561 853d 2d0c 7ebe be19 13be b1d1 abbe
00000370: d160 2c3d 01fa 2dbd ff1d 333e 0e0b e8bd
00000380: 4e94 45be 6a4f 4e3e 90a0 10be fcd3 bbbe
00000390: 1d4a 52bd b1f3 b2bb b4f4 4f3b aa2b da3d
000003a0: b40a 423e bc00 933c a24f da3d 7fe8 813e
000003b0: 6b5a aebd 1465 ddbd 6ce4 f3be b992 ec3d
000003c0: d688 95bd 8b8e 91bd d861 85bb f06a babd
000003d0: 9982 88bd 3c4d 383d 6c73 82be 3bb6 803d
000003e0: fe46 78bd 6763 ca3d 0ca3 9dbe b82f 81bd
000003f0: 6fcd b1be d127 08be 87a8 f63d 5828 10be

network.1.running_var f4 [256]
6.3879867 6.797219 5.759002 2.321313 5.082002 7.9125624 7.070017 5.4526577
6.5932503 4.405003 6.272039 8.458324 4.585369 11.622052 4.405125 7.6335707
4.984375 6.65148 6.347629 5.0675125 3.5567584 4.55818 2.5457768 6.9399786
4.7606645 4.5444417 3.5712273 6.156926 5.011306 2.95081 4.498244 5.2514668
4.5749135 3.0360904 3.6805441 5.695517 4.0858884 9.863075 3.5976896 5.6744394
6.5488453 3.0209181 6.097576 3.399619 2.293836 4.550713 3.523177 8.913658
8.913344 4.7701097 4.528713 3.6683726 2.9475198 4.642309 3.2959788 5.557061
3.1673615 4.1511946 3.470667 6.2422376 5.607527 7.48775 13.355708 6.662592
3.8478746 6.71908 3.5094252 2.9674752 5.179075 3.9004102 3.9408307 5.080439
4.4876294 4.8939586 4.1323366 8.444768 4.7481756 4.6311564 4.6462517 3.5185902
2.7816956 5.4381857 2.5054555 6.0930176 2.7596104 2.900288 4.5556507 5.008938
3.4063318 3.6925082 6.0238338 5.7115526 4.9714446 5.055907 5.4689164 3.7045043
7.183527 8.490265 4.989924 7.140798 5.413184 6.268506 5.607145 10.835475
3.2975104 3.7842722 4.937518 3.5782533 6.103821 2.561387 2.5664139 3.8389888
4.707357 4.5752316 3.6977031 3.1135485 5.547365 10.423814 9.14729 6.237951
7.6149683 3.2969086 4.17206 6.716325 8.901432 3.9836195 5.966771 3.223236
3.4679182 6.6523786 5.2462835 8.315234 7.569542 6.7518644 3.8754299 6.61091
12.390731 3.8125787 4.8984647 4.2850566 6.6054735 4.6859956 1.9944476 3.3520103
6.5205035 7.934593 5.6384506 3.723756 3.9981644 7.133353 5.2473345 4.1614943
4.2345943 4.822446 2.8605032 3.7350087 5.64138 4.85864 5.3723454 4.6571355
4.051446 7.027171 4.8546014 3.9020188 6.020017 4.9270344 7.735972 5.348811
4.1026883 2.8872619 5.626127 4.522292 4.8925953 4.9313636 6.300383 3.1131988
4.468465 6.891245 8.043045 11.353606 3.5124233 9.168019 2.5415304 7.765883
3.8207207 2.8075328 7.7392683 4.9182534 7.869341 4.3746934 5.3921404 5.2309813
4.6391053 5.68589 3.8266213 3.610109 4.0636063 5.2516007 6.578666 4.814413
5.2295547 7.9644346 3.0204701 5.1220264 4.7303863 5.0551863 5.013844 5.911937
5.190239 11.242214 6.8417163 4.92586 6.462681 4.042053 4.299698 6.353648
7.6765757 5.5510435 3.7918565 3.901197 1.854599 8.262561 2.328913 3.7980587
5.704407 7.1157985 3.903366 4.5798616 3.8592098 5.1201673 4.9262447 3.8938303
4.0776477 7.3202195 4.817062 11.874463 6.180435 2.9619303 9.184995 6.810744
5.727279 8.297585 6.167246 5.1612954 4.8287563 8.298591 3.6798813 5.033262
4.394822 6.4850726 5.7512913 5.0422535 5.667424 7.4946136 4.7682447 3.046767
00000000: 636a cc40 d182 d940 bf49 b840 6490 1440
00000010: c39f a240 b633 fd40 943d e240 2c7c ae40
00000020: e8fb d240 c9f5 8c40 8bb4 c840 4c55 0741
00000030: 58bb 9240 edf3 3941 c9f6 8c40 3646 f440
00000040: 0080 9f40 edd8 d440 c71f cb40 1029 a240
00000050: eea1 6340 9cdc 9140 02ee 2240 4e14 de40
00000060: 5d57 9840 116c 9140 fd8e 6440 8a05 c540
00000070: 9e5c a040 12da 3c40 9df1 8f40 040c a840
00000080: b165 9240 4e4f 4240 098e 6b40 ad41 b640
00000090: 99bf 8240 28cf 1d41 8c40 6640 0295 b540
000000a0: 2490 d140 b956 4140 581f c340 5c93 5940
000000b0: 36ce 1240 719f 9140 bb7b 6140 589e 0e41
000000c0: 0f9d 0e41 bda4 9840 38eb 9040 9ec6 6a40
000000d0: 2aa4 3c40 cc8d 9440 51f1 5240 72d3 b140
000000e0: 0db6 4a40 96d6 8440 681f 5e40 69c0 c740
000000f0: dc70 b340 a69b ef40 fbb0 5541 f433 d540
00000100: 9443 7640 b402 d740 6c9a 6040 1deb 3d40
00000110: fbba a540 52a0 7940 9236 7c40 f592 a240
00000120: a99a 8f40 4f9b 9c40 1a3c 8440 c51d 0741
00000130: 0ef1 9740 6f32 9440 18ae 9440 9530 6140
00000140: 4d07 3240 9e05 ae40 6259 2040 00fa c240
00000150: 759d 3040 529e 3940 e4c7 9140 3849 a040
00000160: 5701 5a40 0e52 6c40 3fc3 c040 0ac5 b640
00000170: 1316 9f40 fdc9 a140 5d01 af40 9916 6d40
00000180: 74df e540 20d8 0741 75ad 9f40 6b81 e440
00000190: ce38 ad40 9a97 c840 bb6d b340 1b5e 2d41
000001a0: 690a 5340 8431 7240 2600 9e40 1a02 6540
000001b0: 8052 c340 c4ed 2340 2040 2440 feb1 7540
000001c0: aba2 9640 4c68 9240 2ba7 6c40 6144 4740
000001d0: 0484 b140 f1c7 2641 4d5b 1241 4b9d c740
000001e0: d2ad f340 8d00 5340 8481 8540 22ec d640
000001f0: 446c 0e41 9ff3 7e40 caef be40 8049 4e40
00000200: 5ff2 5d40 49e0 d440 8ee1 a740 330b 0541
00000210: b039 f240 460f d840 0b07 7840 938c d340
00000220: 6f40 4641 4a01 7440 39c0 9c40 2f1f 8940
00000230: 0a60 d340 adf3 9540 0f4a ff3f 5687 5640
00000240: f7a7 d040 30e8 fd40 306e b440 0552 6e40
00000250: ede1 7f40 6e44 e440 2aea a740 f62a 8540
00000260: cc81 8740 7a51 9a40 7c12 3740 620a 6f40
00000270: 2f86 b440 fb79 9b40 41ea ab40 4107 9540
00000280: 72a5 8140 96de e040 e558 9b40 adba 7940
00000290: fba3 c040 44aa 9d40 158d f740 7629 ab40
000002a0: 3949 8340 e6c8 3840 3b09 b440 9eb6 9040
000002b0: 2490 9c40 bbcd 9d40 bd9c c940 a63e 4740
000002c0: aafd 8e40 1485 dc40 50b0 0041 5fa8 3541
000002d0: 8bcb 6040 35b0 1241 6fa8 2240 1d82 f840
000002e0: b086 7440 9eae 3340 16a8 f740 5562 9d40
000002f0: a4d1 fb40 7dfd 8b40 6a8c ac40 3364 a740
00000300: 8d73 9440 d0f2 b540 5de7 7440 070c 6740
00000310: 1009 8240 1d0d a840 6f84 d240 ac0f 9a40
00000320: 8358 a740 a6dc fe40 624f 4140 a4e7 a340
00000330: 535f 9740 16c4 a140 6971 a040 972e bd40
00000340: 7016 a640 1ce0 3341 57ef da40 a5a0 9d40
00000350: 48ce ce40 8058 8140 2097 8940 1651 cb40
00000360: 82a6 f540 26a2 b140 c7ad 7240 36ad 7940
00000370: 8063 ed3f 7333 0441 e90c 1540 6513 7340
00000380: 818a b640 9fb4 e340 c0d0 7940 3a8e 9240
00000390: 4bfd 7640 69d8 a340 cca3 9d40 8434 7940
000003a0: 177c 8240 3d3f ea40 5f25 9a40 cdfd 3d41
000003b0: 20c6 c540 4490 3d40 bdf5 1241 9df1 d940
000003c0: df45 b740 e8c2 0441 145a c540 5529 a540
000003d0: 2c85 9a40 07c7 0441 2d83 6b40 7b10 a140
000003e0: 62a2 8c40 b785 cf40 940a b840 245a a140
000003f0: 8a5b b540 e0d3 ef40 7695 9840 3bfe 4240

network.4.weight f4 [128, 256]
-0.2598175 -0.06006506 0.039637934 -0.43832535 0.22777328 -0.13863754 0.22752443 -0.027302716
-0.050674364 -0.22591178 0.18837748 0.14993645 -0.051487427 0.14622912 0.205159 0.21530388
0.085185885 0.18195024 -0.06297213 -0.34501764 -0.16477291 -0.058574155 0.042183332 -0.022217296
-0.19530165 -0.22627361 -0.020654423 0.05621563 0.06405038 0.12058962 -0.116729945 -0.11568871
-0.15576565 0.0056706164 -0.17175654 0.0054156464 0.042124756 -0.10973701 -0.0009163081 0.1487014
0.32853195 -0.2142913 -0.011132898 0.09198001 -0.09164278 0.0794056 -0.10030845 0.1315617
0.114077 0.089781806 0.11732288 0.19507563 -0.14468488 0.034100242 0.12076613 0.10629674
0.18519193 -0.15437989 0.103082106 0.076984696 0.14097181 -0.022911286 -0.00093817036 0.038586006
0.04726949 -0.07334272 0.16877511 -0.12523837 0.16474213 0.14466411 -0.07343615 -0.25182626
0.0029059146 -0.1662351 0.054652393 0.12313646 -0.10002532 0.037028976 0.055166427 -0.025287725
-0.07651154 0.21127452 -0.028801799 0.042462137 0.14945549 -0.17663541 -0.043974947 0.036439385
0.17538045 -0.16094902 0.23879482 0.12078885 -0.031805914 -0.2838662 0.09253493 -0.0001913691
0.21780768 0.090750776 -0.088038504 -0.05040361 -0.04636192 0.035078604 -0.13237405 -0.07782683
-0.025617786 -0.11780861 0.06305217 0.07147876 -0.04181362 -0.107163616 -0.17144385 -0.06068013
0.09650587 -0.047929734 0.08755535 0.26682714 0.108771764 -0.008245863 0.0025645036 0.066694856
0.014946889 -0.14123292 -0.05672506 0.0242771 -0.05567077 0.09474682 0.12092281 -0.07776219
-0.087581225 -0.036485326 -0.21444583 0.04750553 0.08059594 0.08500102 0.042830218 -0.10917615
0.073637865 0.00818446 0.041962028 -0.02571841 -0.03465313 0.18615927 0.21096897 0.1742552
0.17350253 0.09660207 -0.20638652 0.044256113 -0.1494171 0.23765449 -0.043309994 -0.21104206
0.009467435 0.0078465175 0.041443426 0.17271249 0.14088976 0.13761996 0.06923739 0.0013554507
-0.041343372 -0.0076760813 0.010299365 0.05584549 0.009667739 -0.0811296 -0.017852291 -0.07916318
0.06269147 -0.042441085 -0.14030088 -0.06458625 -0.0005399011 0.10234066 -0.15528578 -0.07773872
0.036206108 -0.029636458 0.108764365 0.00024090918 0.058612406 0.18483734 -0.06892483 0.09122833
-0.006927928 -0.040841796 -0.03289916 0.08171171 0.008880054 0.06493841 0.070561595 -0.022995062
-0.018327495 -0.016654693 0.24399081 -0.1496583 -0.12450255 -0.110634714 0.016958248 0.067698605
0.03922649 -0.056713127 0.14081028 -0.05773164 0.06198559 -0.14798446 -0.11544809 -0.07037045
-0.12610522 0.11280556 -0.02701541 -0.14460295 0.16891114 0.017368717 -0.03426362 0.06764836
0.01793239 0.13618745 0.1785948 0.019430982 -0.026449414 -0.17474993 -0.08263839 0.009702523
-0.059063002 -0.20650232 -0.13374954 0.010470536 -0.10739966 0.2747495 0.24151343 -0.0939897
0.23777102 -0.05088458 -0.061661035 -0.15869065 0.09917908 -0.0072643566 -0.015488941 -0.0824927
0.22033775 0.010038267 -0.020246463 0.11657138 0.03891498 0.091927536 0.23588699 0.019631047
-0.18084028 -0.22163269 -0.01792434 0.10188609 0.13287602 -0.08648705 0.01579281 0.23452504
00000000: cd06 85be c806 76bd 635b 223d 2e6c e0be
00000010: 663d 693e 00f7 0dbe 2afc 683e f2a9 dfbc
00000020: ec8f 4fbd 6b55 67be 07e6 403e f188 193e
00000030: 7be4 52bd 16bd 153e 3315 523e 9f78 5c3e
00000040: f075 ae3d 2a51 3a3e 88f7 80bd 27a6 b0be
00000050: 3bba 28be 74eb 6fbd 6ec8 2c3d 0c01 b6bc
00000060: 28fd 47be 45b4 67be 7733 a9bc 5c42 663d
00000070: d82c 833d b1f7 f63d 1c10 efbd 34ee ecbd
00000080: 0881 1fbe 94d0 b93b f2e0 2fbe bc75 b13b
00000090: 028b 2c3d ccbd e0bd 6534 70ba 2e45 183e
000000a0: 5735 a83e 2e6f 5bbe c266 36bc 0460 bc3d
000000b0: 36af bbbd 679f a23d 846e cdbd 1cb8 063e
000000c0: 34a1 e93d 86df b73d fa46 f03d e8c1 473e
000000d0: 4628 14be b2ac 0b3d 3c54 f73d 1bb2 d93d
000000e0: f4a2 3d3e c315 1ebe b61c d33d 27aa 9d3d
000000f0: ea5a 103e 73b0 bbbc 8cef 75ba 5c0c 1e3d
00000100: a79d 413d b534 96bd 62d3 2c3e 7d3e 00be
00000110: 29b2 283e d422 143e b165 96bd 5fef 80be
00000120: 2871 3e3b 8939 2abe 30db 5f3d f82e fc3d
00000130: 13da ccbd b2ab 173d 31f6 613d 3428 cfbc
00000140: 15b2 9cbd 5958 583e c0f1 ebbc c7ec 2d3d
00000150: dc0a 193e eadf 34be 131f 34bd 7741 153d
00000160: ef96 333e d2cf 24be a186 743e 2560 f73d
00000170: eb46 02bd e956 91be f482 bd3d 40aa 48b9
00000180: fa08 5f3e 8bdb b93d 884d b4bd 0474 4ebd
00000190: ffe5 3dbd 95ae 0f3d 108d 07be ac63 9fbd
000001a0: 64dc d1bc a445 f1bd 7f21 813d 7563 923d
000001b0: c244 2bbd 9978 dbbd fa8e 2fbe ba8b 78bd
000001c0: dfa4 c53d f851 44bd 3850 b33d 919d 883e
000001d0: bbc3 de3d a819 07bc 3b11 283b 5097 883d
000001e0: cce3 743c 5d9f 10be 8958 68bd c5e0 c63c
000001f0: 0907 64bd 9f0a c23d 61a6 f73d c841 9fbd
00000200: c95d b3bd a371 15bd b097 5bbe 2995 423d
00000210: 7c0f a53d 0415 ae3d bd6e 2f3d bf97 dfbd
00000220: 73cf 963d 1d18 063c 60e0 2b3d 6aaf d2bc
00000230: 71f0 0dbd 89a0 3e3e 4008 583e f56f 323e
00000240: a6aa 313e 4ed7 c53d fd56 53be e645 353d
00000250: cc00 19be b35b 733e d265 31bd 691b 58be
00000260: 4d1d 1b3c ae8e 003c 95c0 293d 8bdb 303e
00000270: 6845 103e 3fec 0c3e 55cc 8d3d 61a9 b13a
00000280: ab57 29bd a387 fbbb abbe 283c 3ebe 643d
00000290: 7065 1e3c 4727 a6bd f83e 92bc 4e20 a2bd
000002a0: 6364 803d b4d6 2dbd 09ab 0fbe cc45 84bd
000002b0: 2688 0dba fb97 d13d 3c03 1fbe 7a35 9fbd
000002c0: db4c 143d 28c8 f2bc dabf de3d 919c 7c39
000002d0: 9013 703d 0046 3d3e 7628 8dbd ebd5 ba3d
000002e0: ac03 e3bb ba49 27bd 45c1 06bd 7858 a73d
000002f0: a57d 113c 6efe 843d 9982 903d 2460 bcbc
00000300: 8b23 96bc 6c6f 88bc bad8 793e 0740 19be
00000310: 31fb febd 7494 e2bd 06ec 8a3c 91a5 8a3d
00000320: f5ab 203d 064c 68bd 9230 103e 0378 6cbd
00000330: 9ae4 7d3d 3d89 17be 0c70 ecbd 621e 90bd
00000340: ba21 01be 9a06 e73d 6c4f ddbc cc12 14be
00000350: 0bf7 2c3e d748 8e3c 0258 0cbd 398b 8a3d
00000360: f3e6 923c b974 0b3e 8ee1 363e b92d 9f3c
00000370: 71ac d8bc a5f1 32be 513e a9bd 55f7 1e3c
00000380: 0cec 71bd 5875 53be a4f5 08be 9c8c 2b3c
00000390: 5af4 dbbd f7ab 8c3e 4c4f 773e ac7d c0bd
000003a0: 3f7a 733e 596c 50bd 4890 7cbd cd7f 22be
000003b0: 671e cb3d d709 eebb 54c5 7dbc eff1 a8bd
000003c0: 38a0 613e 8b77 243c e9db a5bc fabc ee3d
000003d0: 5065 1f3d 8144 bc3d 5c8c 713e 4ad1 a03c
000003e0: 322e 39be aef3 62be 11d6 92bc a8a9 d03d
000003f0: a710 083e 1f20 b1bd ec5f 813c 5527 703e

network.4.bias f4 [128]
7.169254e-05 7.383766e-05 2.006609e-06 6.456291e-05 -3.6371064e-05 -9.809605e-06 -9.130843e-05 6.696923e-05
-2.0178368e-05 7.954244e-05 -1.819502e-05 -4.6376237e-05 -6.409296e-05 -5.6396944e-05 -7.083287e-05 -0.0001554845
-0.00015814429 1.1010708e-05 -9.4166506e-05 -8.605218e-05 -7.583578e-06 -3.4517754e-05 -1.9268404e-05 2.3472567e-05
-4.7746318e-05 -0.00011610609 9.3174924e-05 -1.719725e-05 5.3125077e-06 8.735876e-05 4.791049e-05 -7.0021204e-05
-2.789927e-05 6.900188e-05 0.00013563565 6.2119e-05 -8.665505e-05 1.5908165e-05 8.561027e-05 1.5520189e-05
-0.00023546803 -1.6500453e-05 0.00017425923 3.0341238e-05 3.9263614e-06 -0.00014316442 -4.580683e-05 0.00015575031
0.00021258899 0.00021880349 4.118835e-05 -2.2214572e-05 -5.3064952e-05 6.321325e-05 1.4051324e-05 6.660276e-05
8.9926e-05 6.7000845e-05 7.2526655e-06 0.000100905425 -5.6393677e-05 -9.890884e-05 -4.1002964e-05 5.1169864e-06
-1.2764012e-06 2.3797804e-05 3.353991e-06 4.0019262e-05 -1.588007e-05 8.6562824e-05 -0.00017457204 5.5982204e-05
7.623291e-05 -1.0237911e-05 0.00015573506 -0.00014163327 -1.7632838e-06 -0.00011045852 -1.6971773e-05 0.00021873017
-2.4757865e-06 1.7606128e-05 4.5194298e-05 8.9889705e-05 0.00012230732 -9.389067e-05 2.867423e-05 4.069316e-05
-1.1028307e-05 -9.248644e-06 5.9201748e-06 -9.9901736e-05 5.1317093e-05 -7.1866496e-05 -5.1619823e-05 7.3667805e-05
-3.0081435e-05 3.830793e-05 -7.614639e-06 5.4555734e-05 -7.67685e-05 -0.00013123339 3.8376344e-05 3.1466767e-05
-9.827812e-05 -9.3205526e-05 -2.137963e-05 -8.177627e-05 7.398099e-06 4.8744307e-05 -2.8850833e-05 5.3743028e-05
3.6434893e-05 4.112515e-05 4.1826974e-05 3.102626e-05 5.398263e-05 7.6232895e-06 -1.273755e-05 3.0324949e-05
5.4475266e-05 -2.1847076e-05 -3.494776e-05 8.75765e-05 3.5032677e-05 -0.0001027785 -3.989308e-05 7.584378e-05
00000000: a459 9638 4bd9 9a38 48a9 0636 f365 8738
00000010: 228d 18b8 ef93 24b7 d77c bfb8 d571 8c38
00000020: b744 a9b7 06d0 a638 82a1 98b7 1b84 42b8
00000030: a569 86b8 c28b 6cb8 1c8c 94b8 8d09 23b9
00000040: 89d3 25b9 a1ba 3837 427b c5b8 ea76 b4b8
00000050: 7076 feb6 28c7 10b8 95a2 a1b7 f4e6 c437
00000060: 3843 48b8 fc7d f3b8 e866 c338 d042 90b7
00000070: 1842 b236 6134 b738 7ff3 4838 59d8 92b8
00000080: 3a09 eab7 1ab5 9038 6b39 0e39 e245 8238
00000090: 93ba b5b8 8672 8537 aa89 b338 5a31 8237
000000a0: f8e7 76b9 746a 8ab7 5bb9 3639 5085 fe37
000000b0: 30bf 8336 681e 16b9 b620 40b8 e850 2339
000000c0: 6cea 5e39 9d6e 6539 a7c1 2c38 6e59 bab7
000000d0: 0f92 5eb8 5b91 8438 fabd 6b37 16ad 8b38
000000e0: a796 bc38 ce82 8c38 ec5b f336 309d d338
000000f0: 4088 6cb8 476d cfb8 99fa 2bb8 94b2 ab36
00000100: d050 abb5 65a1 c737 2015 6136 5bda 2738
00000110: 3136 85b7 1089 b538 530d 37b9 6fce 6a38
00000120: 3bdf 9f38 7ec3 2bb7 d04c 2339 6483 14b9
00000130: f8a9 ecb5 f7a5 e7b8 9b5e 8eb7 ef5a 6539
00000140: b025 26b6 dfb0 9337 028f 3d38 2b83 bc38
00000150: 9f3f 0039 2be7 c4b8 7189 f037 f3ad 2a38
00000160: 3806 39b7 a02a 1bb7 eaa5 c636 5682 d1b8
00000170: 4f3d 5738 08b7 96b8 5d82 58b8 1a7e 9a38
00000180: 6457 fcb7 d4ac 2038 4081 ffb6 c6d2 6438
00000190: c6fe a0b8 b29b 09b9 49f6 2038 2ffb 0338
000001a0: aa1a ceb8 5677 c3b8 6858 b3b7 4d7f abb8
000001b0: 303d f836 cd72 4c38 b104 f2b7 236a 6138
000001c0: abd1 1838 cb7d 2c38 5f6f 2f38 3122 0238
000001d0: 686b 6238 8fcb ff36 5cb3 55b7 5562 fe37
000001e0: 5f7c 6438 3d44 b7b7 df94 12b8 47a9 b738
000001f0: 0df0 1238 c98a d7b8 de52 27b8 520e 9f38

network.5.weight f4 [128]
1.0050839 0.99686515 0.9870507 0.9937416 0.99301773 1.0018102 0.99248904 1.0042593
1.0047808 0.9974778 0.9829286 0.99405456 0.9916064 1.0123687 0.9904344 0.98847985
1.0040127 1.0212588 1.0039066 1.0063237 0.96688044 0.98831564 0.9896212 1.0147833
0.97988045 1.0026197 1.0003242 0.9888138 1.0089368 0.9919876 1.0108395 1.0004873
1.0199586 1.0029535 0.9991912 0.98404187 1.0248231 1.0028622 1.0030271 0.9913412
1.0082116 0.99395096 0.9956411 1.0006436 0.9954931 0.99902993 1.0028636 0.9826069
1.0165026 1.006561 1.0086311 1.0001888 1.0144383 0.9817004 0.99026054 1.0069876
0.992591 0.9913524 1.0047786 1.0090734 0.9797589 0.9945083 0.9849115 1.0024468
1.0005703 0.9882585 1.0115958 1.0188208 0.98535615 1.001706 0.98102576 0.9896919
0.99254537 1.0074646 1.0055573 1.0070009 0.98190993 1.0134418 1.0139738 1.0090618
1.0022843 1.0086733 0.98240477 0.9940555 1.0039563 1.0100458 1.0048981 0.99373925
0.9997359 1.0067301 0.98034316 0.99856585 0.9965409 1.0017533 0.97586805 0.99435383
1.0007565 1.0023876 0.9916098 1.0127274 1.0170484 1.003172 1.0210435 1.0023425
1.0010405 0.98717815 1.0069754 1.0222808 0.9885469 0.9903204 1.0105911 1.0284629
0.99384594 1.0143812 1.0058342 0.9976932 0.9855617 0.9900967 0.9948388 0.99968964
1.0126855 0.99624777 1.0080806 0.9978892 1.0057161 1.0055697 1.0110458 1.0024093
00000000: 97a6 803f 8e32 7f3f 5baf 7c3f d965 7e3f
00000010: 6936 7e3f 513b 803f c313 7e3f 928b 803f
00000020: a89c 803f b55a 7f3f 35a1 7b3f 5c7a 7e3f
00000030: ebd9 7d3f 4c95 813f 1c8d 7d3f 040d 7d3f
00000040: 7d83 803f 9cb8 823f 0380 803f 37cf 803f
00000050: 7a85 773f 4102 7d3f d157 7d3f 6be4 813f
00000060: 72d9 7a3f d855 803f a00a 803f e722 7d3f
00000070: d724 813f e6f2 7d3f 3063 813f f80f 803f
00000080: 018e 823f c860 803f ffca 7f3f 2bea 7b3f
00000090: 672d 833f ca5d 803f 3163 803f 89c8 7d3f
000000a0: 140d 813f 9273 7e3f 56e2 7e3f 1715 803f
000000b0: a3d8 7e3f 6dc0 7f3f d65d 803f 208c 7b3f
000000c0: c21c 823f fed6 803f d31a 813f 3006 803f
000000d0: 1dd9 813f b850 7b3f b781 7d3f f8e4 803f
000000e0: 721a 7e3f 45c9 7d3f 969c 803f 5129 813f
000000f0: 7bd1 7a3f 1998 7e3f 2923 7c3f 2d50 803f
00000100: b012 803f 82fe 7c3f f97b 813f b868 823f
00000110: 4d40 7c3f e737 803f 8124 7b3f 735c 7d3f
00000120: 7417 7e3f 9af4 803f 1ab6 803f 68e5 803f
00000130: 735e 7b3f 76b8 813f e5c9 813f f028 813f
00000140: da4a 803f 351c 813f e17e 7b3f 6c7a 7e3f
00000150: a481 803f 2e49 813f 80a0 803f b265 7e3f
00000160: b1ee 7f3f 88dc 803f c5f7 7a3f 03a2 7f3f
00000170: 4e1d 7f3f 7439 803f 7dd2 793f f98d 7e3f
00000180: ca18 803f 3d4e 803f 24da 7d3f 0da1 813f
00000190: a42e 823f f167 803f 8eb1 823f c24c 803f
000001a0: 1822 803f b5b7 7c3f 92e4 803f 19da 823f
000001b0: 6911 7d3f a385 7d3f 0d5b 813f aca4 833f
000001c0: b06c 7e3f 3ed7 813f 2dbf 803f d268 7f3f
000001d0: c64d 7c3f fa76 7d3f c1ad 7e3f a9eb 7f3f
000001e0: ae9f 813f 180a 7f3f c908 813f ab75 7f3f
000001f0: 4ebb 803f 82b6 803f f369 813f f34e 803f
