model/checkpoints/model_a_epoch_40.pth (torch, 708451 bytes, 20 tensors)

network.0.weight f4 [256, 512]
-0.027867593 -0.05102243 0.15983562 -0.05539037 0.0913737 0.12801342 0.010866942 0.002661476
-0.10540723 0.17718749 -0.040495146 -0.022875372 0.1614401 -0.034878425 -0.011466124 -0.0128226625
-0.08948604 -0.021398017 -0.14524017 0.08618181 -0.0003811737 -0.06447518 -0.014531982 -0.024417032
-0.12430453 0.10555304 -0.079511 0.017080687 -0.04841034 0.055396277 -0.104996614 -0.019154219
0.0032144068 0.0036871212 -0.007566558 0.008991007 0.13371949 0.0034901353 -0.035516683 -0.054693636
-0.0867274 0.029723572 0.06582134 0.13880427 0.054098826 -0.0424126 0.1266226 0.012620045
0.09098184 0.16022022 0.032371026 -0.07811091 -0.045493163 0.18834813 0.12787294 -0.012746538
-0.14924484 -0.098325096 0.01739761 0.08015619 -0.19543469 -0.019653495 -0.24362825 0.04566639
0.039570153 0.02417521 0.13675301 -0.0032355979 -0.06668238 -0.1373743 0.10080566 -0.052666742
-0.025302049 -0.0066394405 -0.1155242 0.14804071 0.0733647 -0.011210722 0.17570816 0.10550488
-0.07025191 0.11056005 -0.27243218 0.035813574 -0.014829996 -0.06271298 0.051653605 0.14148465
0.031752016 0.022337755 0.10377548 -0.020389099 -0.065618105 -0.11544496 0.04813738 0.07003081
-0.030787293 -0.088543765 -0.020714264 -0.015875548 0.0573136 -0.0801194 0.123961076 -0.023552105
-0.04283155 -0.046661653 0.026072456 0.039451387 0.19474252 0.087608874 -0.11311981 0.006569367
-0.034502544 -0.0064542787 -0.16644724 0.18973662 0.04717833 -0.0013671556 0.0591331 0.07823583
0.12681349 0.20367987 -0.04353749 -0.022135057 0.14400421 0.110369824 0.032560017 0.023473065
0.012536182 -0.029503368 -0.08429717 -0.03275063 0.029930655 0.13689362 0.03301595 -0.17048936
0.17010826 -0.037264127 -0.15025586 -0.05226624 -0.06437469 -0.13083029 -0.13020039 0.05592747
0.025408497 0.2564238 0.19322938 0.08093445 -0.052634764 -0.15047649 -0.104025565 -0.076087125
0.022703284 -0.028556084 0.1643944 -0.065097116 -0.07512225 0.06855221 0.072268814 0.13931386
-0.062301926 -0.013716195 0.08664162 -0.048065677 0.046823103 0.03641491 -0.018514536 0.06276598
-0.109803654 -0.11555738 0.044437885 -0.036088478 0.033723556 -0.0642586 0.045797236 -0.25341457
0.041045543 -0.002833529 -0.12323292 0.08335725 0.021860914 0.09649151 0.01680956 0.1468034
0.04937837 0.058663517 0.22447932 0.03795194 0.020654012 0.05631789 0.036300603 0.058998805
-0.15718478 -0.082595125 -0.020603338 -0.03312656 0.059528418 0.00999961 0.16066104 -0.004129815
-0.17557879 0.02258595 -0.07730442 0.023033453 0.018541632 0.056639284 -0.021672627 -0.05997879
0.03474775 -0.06556594 -0.011843602 -0.058868565 -0.008958212 -0.018405404 0.004782734 0.13014005
-0.0028692766 -0.019269107 -0.004476591 0.09823707 -0.005738858 -0.02824773 -0.01519477 0.06887308
0.12962818 -0.027678363 -0.06814983 0.06797921 -0.07192218 0.0043960656 0.041506547 -0.010085941
-0.055864807 -0.048847497 -0.09101353 0.059783578 0.05651713 -0.087600075 0.027450444 0.053455807
-0.14573702 -0.030566908 0.024413625 0.01987697 -0.08023878 0.07060944 -0.03315606 0.012983183
0.078647986 -0.017281117 -0.117852725 0.05934904 0.048767325 0.063288525 0.09007563 0.113980934
00000000: 944a e4bc e5fc 50bd f3ab 233e 03e1 62bd
00000010: 2222 bb3d f315 033e 420b 323c 286c 2e3b
00000020: bfdf d7bd a370 353e 3dde 25bd 2265 bbbc
00000030: 8e50 253e aedc 0ebd 69dc 3bbc 2516 52bc
00000040: 7544 b7bd e54a afbc d7b9 14be 1780 b03d
00000050: 45d8 c7b9 900b 84bd 8d17 6ebc 3a06 c8bc
00000060: 6093 febd 312c d83d aad6 a2bd ccec 8b3c
00000070: ec49 46bd 35e7 623d 7708 d7bd 4fe9 9cbc
00000080: cca8 523b a1a3 713b e4f0 f7bb 044f 133c
00000090: c3ed 083e c1ba 643b f179 11bd 6f06 60bd
000000a0: 239e b1bd d97e f33c 57cd 863d b522 0e3e
000000b0: bb96 5d3d d6b8 2dbd 5ba9 013e 4ec4 4e3c
000000c0: b054 ba3d c510 243e 7b97 043d 9df8 9fbd
000000d0: 0a57 3abd 55de 403e 20f1 023e dbd6 50bc
000000e0: a4d3 18be ab5e c9bd 6f85 8e3c ee28 a43d
000000f0: 0820 48be 5e00 a1bc af79 79be ae0c 3b3d
00000100: 5014 223d 170b c63c fb08 0c3e 530c 54bb
00000110: c690 88bd d9ab 0cbe 3373 ce3d 15b9 57bd
00000120: 3e46 cfbc aa8f d9bb f497 ecbd fc97 173e
00000130: 3b40 963d 2dad 37bc d7ec 333e f112 d83d
00000140: 3ce0 8fbd 4f6d e23d 3b7c 8bbe 41b1 123d
00000150: 83f9 72bc aa6f 80bd bb92 533d 5ae1 103e
00000160: 670e 023d abfd b63c 3d88 d43d 0a07 a7bc
00000170: c962 86bd 686e ecbd b42b 453d 506c 8f3d
00000180: a235 fcbc 6f56 b5bd f6b0 a9bc 700d 82bc
00000190: aac1 6a3d a415 a4bd 4edf fd3d 58f0 c0bc
000001a0: 2370 2fbd 4a20 3fbd e795 d53c c797 213d
000001b0: 956a 473e 486c b33d 5cab e7bd d843 d73b
000001c0: 8a52 0dbd 6a7e d3bb 2571 2abe 514a 423e
000001d0: 113e 413d 2132 b3ba 8d35 723d 1b3a a03d
000001e0: 65db 013e 7591 503e 5e54 32bd 9454 b5bc
000001f0: d775 133e 9309 e23d a75d 053d 964a c03c
00000200: 8f64 4d3c 0cb1 f1bc ffa3 acbd 8625 06bd
00000210: 2231 f53c d72d 0c3e bc3b 073d c394 2ebe
00000220: dc30 2e3e 45a2 18bd acdc 19be 2015 56bd
00000230: e1d6 83bd 60f8 05be 4053 05be 3414 653d
00000240: 7b25 d03c fb49 833e ecdd 453e f6c0 a53d
00000250: 8d97 57bd 8216 1abe 5b0b d5bd 91d3 9bbd
00000260: 3dfc b93c 73ee e9bc 0157 283e a351 85bd
00000270: b2d9 99bd 1a65 8c3d ac01 943d 4ba8 0e3e
00000280: 4e30 7fbd e4b9 60bc 2971 b13d 84e0 44bd
00000290: 95c9 3f3d cd27 153d ccab 97bc 738b 803d
000002a0: bde0 e0bd 59a9 ecbd 8004 363d 83d1 13bd
000002b0: b621 0a3d 039a 83bd e295 3b3d 8ebf 81be
000002c0: 5f1f 283d bab2 39bb 8b61 fcbd 35b7 aa3d
000002d0: a915 b33c 579d c53d 34b4 893c a153 163e
000002e0: f940 4a3d 2849 703d e8dd 653e 7e73 1b3d
000002f0: 9a32 a93c 96ad 663d f1af 143d bba8 713d
00000300: 0cf5 20be a227 a9bd 55c8 a8bc b7af 07bd
00000310: 12d4 733d 67d5 233c 5484 243e 6653 87bb
00000320: edca 33be 2c06 b93c c851 9ebd a7b0 bc3c
00000330: 9fe4 973c 98fe 673d cb8a b1bc 52ac 75bd
00000340: a853 0e3d 7047 86bd ab0b 42bc 2a20 71bd
00000350: 77c5 12bc eec6 96bc 7bb8 9c3b 6f43 053e
00000360: 790a 3cbb 3fda 9dbc 5eb0 92bb 8430 c93d
00000370: 080d bcbb c967 e7bc 7cf3 78bc 540d 8d3d
00000380: 40bd 043e bcbd e2bc 2392 8bbd af38 8b3d
00000390: f04b 93bd df0c 903b c502 2a3d 813f 25bc
000003a0: 7fd2 64bd 5014 48bd 4d65 babd a0df 743d
000003b0: 827e 673d ab67 b3bd c1df e03c 7af4 5a3d
000003c0: 163c 15be 7467 fabc 15ff c73c 07d5 a23c
000003d0: 3b54 a4bd af9b 903d a6ce 07bd 6bb7 543c
000003e0: 3212 a13d 2191 8dbc c55c f1bd fb17 733d
000003f0: 3fc0 473d 6a9d 813d 9279 b83d d66e e93d

network.0.bias f4 [256]
-2.8327636e-06 -1.649886e-05 -4.005197e-05 2.6096239e-05 3.248202e-05 -2.8283093e-05 -9.539023e-06 -2.7245089e-05
5.8391406e-06 5.062429e-06 -2.071685e-05 -2.4400963e-05 -6.26e-05 -4.4563503e-06 -1.2097128e-05 -3.9678653e-06
-2.34071e-06 8.362018e-06 1.0706929e-05 -2.4639081e-05 -1.8112261e-05 5.08505e-05 1.148815e-05 -3.2392832e-06
-1.6430968e-06 -3.3332853e-05 -1.8383489e-05 -1.7927367e-05 -1.0549206e-05 -1.0165032e-06 -3.999354e-06 -1.2708597e-05
-6.825978e-05 -6.417088e-05 3.0671354e-06 1.8722809e-05 -5.1928117e-05 -3.6532815e-06 3.818846e-05 9.198543e-06
-1.1620289e-05 9.083205e-06 1.8635175e-05 -5.9305366e-06 -5.209e-05 3.1730242e-06 -1.0165486e-05 1.1082359e-06
-1.0842923e-06 1.150633e-05 -1.920122e-06 -1.517933e-05 -7.036131e-06 2.7485066e-07 5.8271955e-05 -2.676652e-05
-5.1236557e-06 -1.3633551e-05 -1.4049704e-05 -1.4814194e-05 -5.173253e-06 -3.9787945e-05 1.0395943e-05 1.9022462e-05
-5.0266212e-06 -9.684847e-06 -2.681456e-05 -2.013848e-05 3.2558455e-05 2.0327607e-05 -9.827967e-06 -1.9769725e-05
1.40486e-05 -1.4338784e-05 -9.371351e-06 -1.3648606e-05 1.605259e-05 1.9529009e-05 -1.3207236e-05 -4.7395486e-05
1.5399207e-06 -1.4067284e-05 -0.00010402565 1.3081428e-05 3.214068e-05 -2.7565846e-05 3.489976e-05 2.0941006e-05
-2.7672813e-05 1.8046983e-05 2.6059173e-05 -2.0220552e-05 2.1780961e-05 -1.9420497e-05 3.5652505e-05 1.6071726e-05
2.888066e-06 1.2406611e-05 7.863409e-06 1.1506167e-05 2.7075372e-05 9.819452e-06 -1.9198911e-05 -2.0352742e-05
1.5113364e-05 6.723608e-06 3.8165376e-07 2.6041233e-05 1.9774536e-06 5.338571e-05 7.497979e-05 -2.4786164e-07
-6.2037457e-06 1.9402135e-06 7.454928e-07 4.9983223e-06 -3.443554e-05 3.4925397e-05 1.4686455e-05 1.2594677e-05
-1.9603187e-05 -8.564097e-05 -1.8792263e-05 4.321182e-06 8.856689e-06 -2.9842957e-05 1.1413454e-05 1.8565597e-05
-1.9179393e-05 4.7301346e-06 -1.0242828e-05 -5.789195e-07 -7.196559e-06 -1.654463e-05 3.8488073e-05 -1.2841256e-05
1.4511095e-05 1.1756103e-05 -6.351547e-06 1.1017795e-05 1.22005495e-05 5.526164e-06 7.268579e-05 1.040879e-05
-4.0948853e-06 1.2054341e-05 -3.6976795e-05 1.1957354e-06 -3.0969175e-05 1.604992e-05 1.1347081e-05 -1.57724e-05
4.7860162e-06 3.5383382e-06 -3.3044456e-05 2.213682e-06 -2.4162091e-05 1.7203449e-05 5.6208864e-07 -3.348462e-05
-1.4118536e-05 8.6900145e-06 5.583492e-06 -2.525466e-06 2.9041896e-05 5.2263444e-05 1.28640495e-05 -2.993891e-06
-1.1509581e-05 2.028359e-05 2.558615e-06 -1.1985929e-05 -5.3630965e-06 -4.3075972e-05 1.0627576e-05 -2.2917833e-05
3.1434418e-05 -1.3846284e-05 4.339639e-05 1.5357073e-05 1.2464067e-05 9.389642e-06 3.6035171e-06 1.7481761e-05
-3.8770304e-05 -5.612778e-05 -1.7243754e-05 -7.992427e-06 9.937103e-06 2.3434275e-05 -1.499276e-05 3.3379005e-05
-4.733997e-05 -2.2805054e-05 1.2609691e-05 6.125336e-06 -2.1001528e-05 -7.989409e-06 -2.5328658e-05 1.5833746e-05
3.31223e-05 -3.0402745e-05 -5.1215746e-05 1.88977e-05 -7.230892e-06 -3.3540477e-05 4.6164092e-05 4.8440215e-05
-1.8394572e-05 -1.688268e-05 1.02943795e-05 -1.2772778e-05 1.0428315e-05 2.0258904e-07 2.7831062e-05 -4.264461e-05
2.1386222e-06 6.703914e-05 -2.5099856e-05 -2.7575492e-05 1.7995615e-05 1.9957783e-05 2.4100678e-05 2.381187e-05
1.6514678e-05 -7.827565e-06 -3.881475e-06 1.7273174e-05 1.6012787e-05 1.0467109e-05 1.6243299e-05 1.9856054e-07
-1.2694994e-05 -2.865203e-06 1.9955243e-05 1.1295433e-05 -1.6168484e-05 3.0738807e-05 -1.98282e-05 -3.9512037e-05
3.7941504e-06 -3.8099115e-05 -1.6872726e-05 3.0165354e-05 -2.7517855e-05 -8.987236e-07 -1.9081319e-05 -4.0621562e-05
4.4003456e-05 -4.6980676e-06 2.6683712e-05 1.295441e-07 -9.057362e-06 1.8106084e-06 2.9401068e-05 1.6320788e-06
00000000: 821a 3eb6 0867 8ab7 7afd 27b8 3fe9 da37
00000010: 4e3d 0838 7b41 edb7 cb09 20b7 628c e4b7
00000020: d6ed c336 efdd a936 19c9 adb7 abb0 ccb7
00000030: 1e48 83b8 c287 95b6 c5f4 4ab7 b423 85b6
00000040: 1715 1db6 984a 0c37 e9a1 3337 06b0 ceb7
00000050: c9ef 97b7 4f48 5538 3bbd 4037 7662 59b6
00000060: 6088 dcb5 e1ce 0bb8 3e36 9ab7 ba62 96b7
00000070: 7ffc 30b7 c96e 88b5 3032 86b6 0237 55b7
00000080: b126 8fb8 7b93 86b8 fcd4 4d36 ed0e 9d37
00000090: 64cd 59b8 e62a 75b6 8c2c 2038 7153 1a37
000000a0: c3f4 42b7 1264 1837 bc52 9c37 ecfe c6b6
000000b0: 367b 5ab8 24f0 5436 6e8c 2ab7 b2be 9435
000000c0: 0088 91b5 500b 4137 72db 00b6 baaa 7eb7
000000d0: e817 ecb6 308f 9334 0969 7438 aa88 e0b7
000000e0: deeb abb6 a8bb 64b7 05b7 6bb7 7b8a 78b7
000000f0: e895 adb6 fbe1 26b8 3c6a 2e37 6d92 9f37
00000100: 59aa a8b6 1a7c 22b7 d4ef e0b7 0eef a8b7
00000110: 608f 0838 3485 aa37 cce2 24b7 29d7 a5b7
00000120: 47b2 6b37 9c90 70b7 a539 1db7 51fc 64b7
00000130: ada8 8637 3ad2 a337 a694 5db7 84ca 46b8
00000140: 46af ce35 8602 6cb7 5828 dab8 4e78 5b37
00000150: cbce 0638 343d e7b7 5561 1238 78aa af37
00000160: ea22 e8b7 9a63 9737 a699 da37 4e9f a9b7
00000170: 42b6 b637 33e9 a2b7 9689 1538 c5d1 8637
00000180: 99d0 4136 fd25 5037 16ed 0337 9c0a 4137
00000190: eb1f e337 3abe 2437 590d a1b7 2ebb aab7
000001a0: 678f 7d37 5a9b e136 18e6 cc34 1f73 da37
000001b0: 65b4 0436 78ea 5f38 783e 9d38 d811 85b4
000001c0: c529 d0b6 9d34 0236 e01d 4835 43b7 a736
000001d0: e16e 10b8 dc7c 1238 d865 7637 ba4d 5337
000001e0: 8671 a4b7 259a b3b8 14a4 9db7 acfe 9036
000001f0: 3197 1437 4357 fab7 697c 3f37 51bd 9b37
00000200: 6fe3 a0b7 8cb7 9e36 9cd8 2bb7 0c67 1bb5
00000210: f979 f1b6 53c9 8ab7 416e 2138 c670 57b7
00000220: ae74 7337 143c 4537 601f d5b6 12d9 3837
00000230: f6b0 4c37 636d b936 e36e 9838 6aa1 2e37
00000240: cc66 89b6 003d 4a37 8817 1bb8 287d a035
00000250: e6e4 01b8 f1a2 8637 585f 3e37 f94e 84b7
00000260: 9197 a036 3074 6d36 3799 0ab8 c48e 1436
00000270: b2af cab7 2050 9037 70e2 1635 d671 0cb8
00000280: a6de 6cb7 54cb 1137 d559 bb36 2d7b 29b6
00000290: ff9e f337 7235 5b38 acd2 5737 a8ea 48b6
000002a0: 4619 41b7 ae26 aa37 acb4 2b36 2c17 49b7
000002b0: a6f4 b3b6 79ac 34b8 174d 3237 ac3f c0b7
000002c0: 73d8 0338 564d 68b7 8504 3638 10d3 8037
000002d0: c31c 5137 3588 1d37 f4d3 7136 cca5 9237
000002e0: 4c9d 22b8 bf6a 6bb8 aea6 90b7 3617 06b7
000002f0: 88b7 2637 b994 c437 6a89 7bb7 6f00 0c38
00000300: e88e 46b8 7b4d bfb7 368e 5337 3c88 cd36
00000310: 702c b0b7 400a 06b7 e178 d4b7 b6d2 8437
00000320: ccec 0a38 6609 ffb7 7dd0 56b8 8086 9e37
00000330: e4a0 f2b6 d0ad 0cb8 51a0 4138 492c 4b38
00000340: 0b4e 9ab7 479f 8db7 06b6 2c37 aa4a 56b7
00000350: 46f5 2e37 4087 5934 c076 e937 4ddd 32b8
00000360: 4085 0f36 5d97 8c38 888d d2b7 eb51 e7b7
00000370: 4af5 9637 036b a737 d02b ca37 9abf c737
00000380: 0089 8a37 2353 03b7 9e3d 82b6 dce5 9037
00000390: 3353 8637 e49b 2f37 3842 8837 e833 5534
000003a0: 96fc 54b7 d047 40b6 8f65 a737 8481 3d37
000003b0: 8ea1 87b7 8bed 0038 bc54 a6b7 bab9 25b8
000003c0: 029f 7e36 9dcc 1fb8 e789 8db7 9b0b fd37
000003d0: 25d6 e6b7 d13f 71b5 d210 a0b7 1261 2ab8
000003e0: 5a90 3838 18a4 9db6 d6d6 df37 d018 0b34
000003f0: 13f5 17b7 0804 f335 50a2 f637 cd0d db35

network.1.weight f4 [256]
1.0142746 0.9991622 1.0029111 1.0048257 1.0017742 0.99135226 0.99353963 1.0219563
0.9982172 0.9793405 0.9939532 1.0088793 0.99332416 1.0188547 1.020778 0.9833033
0.98903793 1.0024087 0.9995009 0.98455805 1.0032822 1.0159519 0.9871156 1.0048683
0.994446 1.0062947 1.0011792 1.0028621 1.023771 0.9971833 0.9946084 0.98014617
0.98207647 0.9774402 0.98460066 1.0110356 0.9771719 0.99992424 1.0059329 1.0117692
0.9838732 0.99805576 0.99877197 0.99100244 1.0020928 1.0002055 0.9972413 1.0202084
0.99613374 1.001296 0.99435115 0.9915457 1.0058737 1.0138927 1.0221641 1.0060364
1.0078956 1.0087751 0.99802727 1.0122381 0.9860779 1.0001512 0.99821 1.0216426
1.0092281 0.9841943 0.99205023 0.9974294 1.0118749 1.0004128 0.9941994 1.0003304
0.99182105 0.9972019 0.9932764 1.0199665 1.006909 1.0091383 0.9978846 0.98671603
1.0152931 0.9968924 0.99894875 1.0172828 0.98441434 0.99581754 0.9856297 0.9865507
0.9810133 1.0054053 0.99506915 1.0113118 1.0062104 0.9891944 0.9966221 0.99901944
1.005052 1.0176224 1.0056144 0.97666085 0.97492856 1.0003886 0.98455876 1.0133545
0.99604976 0.9892719 0.9936708 1.0071162 0.98337483 1.0012324 0.99394846 0.98934543
1.0072979 1.006451 0.9973268 0.99998045 0.99394274 0.9913389 0.99099934 0.99326634
1.0083793 1.0032178 1.0312952 0.98903656 0.9854856 1.0199564 0.9857157 1.0013286
1.0112273 1.0013592 0.99891526 0.998829 1.0206249 0.9760487 0.9825391 1.0007559
1.0051521 1.0077994 1.0047092 1.0007044 0.9805555 1.001166 0.99823505 0.9853823
1.0183395 0.9852504 1.0037912 1.0250235 1.0128996 0.9964704 1.0030329 1.0145751
1.0181808 1.0247186 0.9897359 0.99712324 1.0140649 1.0085025 0.97888273 0.99349153
1.0045682 0.99953455 0.98793685 1.0171056 0.990476 1.0181965 0.9894597 0.99412715
0.9993491 1.0183755 1.0036165 0.98392564 0.9999098 0.99031055 0.9974289 0.97639227
0.99280274 0.97191995 0.9990179 1.0121596 0.9956449 0.99635935 1.0116003 0.9984489
0.9957814 0.9982445 0.97648776 0.9855107 1.0079615 1.0145376 1.0057756 1.0127882
0.99555814 0.9821267 0.9794473 0.9993997 0.99311423 1.0105783 0.98152065 1.0054795
0.9979962 0.99675554 0.9899555 0.97909963 0.9946701 1.0079696 0.9838632 0.97328925
1.0120558 1.0105904 1.0192634 0.9991383 1.0018368 1.0158446 1.0246143 0.992049
1.019413 1.007405 1.0077662 0.9815609 1.0158101 1.0061179 0.9906123 0.99975365
1.0150187 1.0182948 1.0045998 0.9951776 0.9968861 0.9926919 1.0030841 1.0013553
0.99423224 1.0063816 0.97960556 1.007621 0.9931233 0.99069554 0.9982303 1.005285
0.9985626 0.99604464 1.0198237 0.9970504 1.0104178 0.99685323 1.021586 0.99408114
0.99657893 1.0003368 1.0022033 0.99669343 1.0000578 1.0206327 0.99580723 1.0117792
00000000: c0d3 813f 18c9 7f3f 645f 803f 219e 803f
00000010: 233a 803f 43c9 7d3f 9d58 7e3f 77cf 823f
00000020: 2a8b 7f3f 0fb6 7a3f b873 7e3f f522 813f
00000030: 7e4a 7e3f d569 823f daa8 823f c4b9 7b3f
00000040: 9731 7d3f ee4e 803f 4adf 7f3f ff0b 7c3f
00000050: 8d6b 803f b60a 823f 9cb3 7c3f 869f 803f
00000060: 0394 7e3f 44ce 803f a426 803f c95d 803f
00000070: ee0a 833f 6847 7f3f a89e 7e3f dcea 7a3f
00000080: 5d69 7b3f 8539 7a3f ca0e 7c3f 9d69 813f
00000090: f027 7a3f 09fb 7f3f 69c2 803f a781 813f
000000a0: 1ddf 7b3f 9580 7f3f 85af 7f3f 56b2 7d3f
000000b0: 9444 803f bc06 803f 354b 7f3f 3096 823f
000000c0: 9f02 7f3f 782a 803f cc8d 7e3f f0d5 7d3f
000000d0: 78c0 803f 3cc7 813f 46d6 823f cdc5 803f
000000e0: b902 813f 8b1f 813f b77e 7f3f 0591 813f
000000f0: 9a6f 7c3f f404 803f b18a 7f3f 2fc5 823f
00000100: 632e 813f 28f4 7b3f 01f7 7d3f 8857 7f3f
00000110: 1e85 813f 870d 803f da83 7e3f d40a 803f
00000120: fce7 7d3f a048 7f3f 5d47 7e3f 438e 823f
00000130: 65e2 803f 722b 813f 5d75 7f3f 6c99 7c3f
00000140: 20f5 813f 5734 7f3f 1bbb 7f3f 5336 823f
00000150: 9402 7c3f e6ed 7e3f 3a52 7c3f 968e 7c3f
00000160: b023 7b3f 1fb1 803f dabc 7e3f aa72 813f
00000170: 81cb 803f d83b 7d3f a022 7f3f bdbf 7f3f
00000180: 8ba5 803f 7341 823f f9b7 803f 7206 7a3f
00000190: eb94 793f bc0c 803f 0b0c 7c3f 9ab5 813f
000001a0: 1efd 7e3f ec40 7d3f 3661 7e3f 2fe9 803f
000001b0: 74be 7b3f 6228 803f 6873 7e3f be45 7d3f
000001c0: 23ef 803f 63d3 803f cf50 7f3f b8fe 7f3f
000001d0: 0873 7e3f 63c8 7d3f 22b2 7d3f b446 7e3f
000001e0: 9312 813f 7169 803f 7b01 843f 8031 7d3f
000001f0: c948 7c3f ee8d 823f dd57 7c3f 892b 803f
00000200: e56f 813f 8a2c 803f e9b8 7f3f 42b3 7f3f
00000210: d6a3 823f 54de 793f af87 7b3f c518 803f
00000220: d3a8 803f 92ff 803f 509a 803f 1517 803f
00000230: af05 7b3f 3526 803f 558c 7f3f 0442 7c3f
00000240: f358 823f 5f39 7c3f 3b7c 803f f833 833f
00000250: b2a6 813f af18 7f3f 6263 803f 99dd 813f
00000260: c053 823f fb29 833f 555f 7d3f 7843 7f3f
00000270: e1cc 813f 9c16 813f 0f98 7a3f 7655 7e3f
00000280: b195 803f 7fe1 7f3f 6ee9 7c3f 8430 823f
00000290: d68f 7d3f 4354 823f 3b4d 7d3f 1e7f 7e3f
000002a0: 58d5 7f3f 215a 823f 8176 803f 8de2 7b3f
000002b0: 17fa 7f3f fe84 7d3f 8057 7f3f d8f4 793f
000002c0: 5228 7e3f bfcf 783f a3bf 7f3f 728e 813f
000002d0: 96e2 7e3f 6811 7f3f 1e7c 813f 599a 7f3f
000002e0: 88eb 7e3f f48c 7f3f 1afb 793f 6e4a 7c3f
000002f0: e204 813f 5edc 813f 41bd 803f 0ba3 813f
00000300: e6dc 7e3f a86c 7b3f 0fbd 7a3f a9d8 7f3f
00000310: bc3c 7e3f a15a 813f f044 7b3f 8db3 803f
00000320: ae7c 7f3f 5f2b 7f3f b96d 7d3f 46a6 7a3f
00000330: b3a2 7e3f 2605 813f 75de 7b3f 7c29 793f
00000340: 0b8b 813f 075b 813f 3977 823f 87c7 7f3f
00000350: 303c 803f 3207 823f 9026 833f ecf6 7d3f
00000360: 207c 823f a6f2 803f 7cfe 803f 9347 7b3f
00000370: 1106 823f 79c8 803f c598 7d3f dbef 7f3f
00000380: 22ec 813f 7c57 823f ba96 803f f6c3 7e3f
00000390: ed33 7f3f 0e21 7e3f 0f65 803f 692c 803f
000003a0: 0186 7e3f 1dd1 803f 6ec7 7a3f baf9 803f
000003b0: 543d 7e3f 399e 7d3f 058c 7f3f 2ead 803f
000003c0: cca1 7f3f c8fc 7e3f 9589 823f b23e 7f3f
000003d0: 5f55 813f c631 7f3f 54c3 823f 1a7c 7e3f
000003e0: cc1f 7f3f 090b 803f 3348 803f 4d27 7f3f
000003f0: e501 803f 18a4 823f 39ed 7e3f fb81 813f

network.1.bias f4 [256]
0.009992511 0.005746942 -0.00033948204 -0.011759038 0.0027989834 -0.014166259 -0.004080847 0.0142274285
0.0043094736 -0.029691946 -0.0014651524 -0.0008024042 0.0031179092 0.018592851 0.022895545 -0.0047171107
-0.00511382 -0.00031726618 0.0073368144 -0.01022907 -0.0071795653 0.0031716994 -0.008905824 0.0033365919
-0.0065802694 0.0012532431 7.864655e-05 0.0017274907 0.020861693 0.0059967744 -0.00095111807 -0.020296747
-0.006475059 -0.016981669 -0.015830537 0.0040029315 -0.02522268 -0.012755394 0.0045334245 0.005086308
-0.014620259 0.0050585275 -0.010101208 -0.0057088896 0.0032916851 -0.0010400672 0.0050323247 0.017852731
-0.0077550127 -0.0028799817 -0.008116533 -0.005101369 -0.013917016 0.00760812 0.010311184 0.0012457097
0.0060182274 0.012175972 0.0059671463 0.0052375267 -0.0028070058 0.0013359855 -0.0049342336 0.016624738
0.0034952539 -0.007457955 -0.010384844 -0.00046228978 0.003919505 -0.00047814596 -0.005676668 -0.00017752677
-0.010160631 -0.0043847747 -0.0052009267 0.015668327 -0.0026305101 0.009600595 -0.0015727615 -0.020601869
0.013771646 0.003997417 -0.0064025433 0.020002391 -0.013251783 -0.0071223485 -0.0029672384 -0.007442042
-0.014484 0.0030793948 -0.004171363 0.017015824 -6.585148e-05 -0.0042570983 -0.002188777 0.00016960657
-0.007713419 0.0027073813 0.007640583 -0.022170722 -0.02295723 0.0065391595 -0.008898299 0.017005
-0.008082259 -0.010429494 -0.017314307 0.0006808581 -0.011733158 -0.0013508063 -0.0009499698 -0.0070812902
0.0033552547 -0.016444938 -0.0017561056 0.0014165384 -0.0025139332 -0.008403285 0.000997305 -0.009459544
0.0115200225 4.1194668e-05 0.030213773 -0.0135420915 -0.0093366 0.013086773 -0.012692756 -0.005500849
0.012524589 0.0059086056 0.0013518493 -0.0024450256 0.02016348 -0.011689188 -0.018715397 -0.0062328037
0.009481092 -0.0015969041 0.006493209 0.0072796308 -0.022232296 0.008993365 0.0013232627 -0.0028230671
0.012178465 -0.006595234 0.0017157348 0.021171354 0.006161476 -0.00529904 -0.0016134665 0.02091967
0.01604028 0.012492912 -0.010346991 0.0021398228 0.012404467 -0.0014098904 -0.014334096 -0.0104899155
0.007154149 0.001750698 -0.012250532 0.00901353 -0.0112338 0.009601191 -0.023102716 -0.005662419
-0.0050685457 0.012516363 -0.003795969 -0.012269215 -0.006140465 -0.011547156 0.0009836837 -0.019621577
-0.0100843 -0.02739976 -0.0028693199 0.013086856 0.008723372 -0.0090031065 0.0073392526 0.0003521979
-0.006229214 -0.0056683715 -0.020698138 -0.017971952 -0.0033918729 0.021738432 0.012185219 0.010943324
0.004523228 -0.01818631 -0.022599794 -0.0031919405 0.004032833 0.017271273 -0.017209912 -0.0113525875
-0.006682243 0.010606122 -0.017599229 -0.019393912 -0.009587137 0.010590699 -0.008177097 -0.015766371
0.007802231 0.013414599 0.017317986 -0.0043365485 -0.005092796 0.01389562 0.010449253 -0.008364001
0.01867857 0.015396235 0.0037257278 -0.013395531 0.009147563 -0.00046132453 -0.00736154 0.0012759387
0.009263284 0.020586468 0.011425329 0.0010007476 -0.00063674187 -0.014065709 0.008594643 0.0010548056
-0.005158174 0.010422319 -0.018683176 0.004623994 -0.006500278 -0.0020992835 -0.0040260283 -0.0048520635
-0.0034910603 -0.0036314544 0.013086096 -0.010866324 0.006550305 -0.0028814722 0.004987942 -0.009332462
-0.0019571232 -0.0025742836 0.005430473 -0.0036146601 0.008973266 0.020065758 -0.008777121 -0.0038028983
00000000: a1b7 233c d850 bc3b 82fc b1b9 fba8 40bc
00000010: 266f 373b 9919 68bc a0b8 85bb 291a 693c
00000020: 7c36 8d3b 863c f3bc 5b0a c0ba 6f58 52ba
00000030: d655 4c3b 0950 983c 708f bb3c fe91 9abb
00000040: d591 a7bb bf56 a6b9 a969 f03b d497 27bc
00000050: 8f42 ebbb 49dc 4f3b bce9 11bc b9aa 5a3b
00000060: 4d9f d7bb dc43 a43a 0cef a438 f86c e23a
00000070: 24e6 aa3c 9780 c43b 7454 79ba 5d45 a6bc
00000080: bb2c d4bb 241d 8bbc 0baf 81bc 062b 833b
00000090: cb9f cebc 00fc 50bc 1f8d 943b 0bab a63b
000000a0: d089 6fbc 01c2 a53b 8a7f 25bc a311 bbbb
000000b0: 50b9 573b dd52 88ba 33e6 a43b e43f 923c
000000c0: c31d febb 13be 3cbb 35fb 04bc 6329 a7bb
000000d0: 3204 64bc 894d f93b 3ef0 283c 1547 a33a
000000e0: 8d34 c53b ba7d 473c 0d88 c33b 8f9f ab3b
000000f0: bef5 37bb 3c1c af3a 5aaf a1bb 9a30 883c
00000100: a110 653b dc61 f4bb 3125 2abc 7c5f f2b9
00000110: 316f 803b aaaf fab9 5803 babb 7b26 3ab9
00000120: c678 26bc 28ae 8fbb 896c aabb dd5a 803c
00000130: a364 2cbb d04b 1d3c 1e25 ceba 40c5 a8bc
00000140: 78a2 613c c4fc 823b 6dcc d1bb 0edc a33c
00000150: 021e 59bc 9762 e9bb 0076 42bb 60dc f3bb
00000160: 4d4e 6dbc accf 493b eeaf 88bb c564 8b3c
00000170: be19 8ab8 217f 8bbb 9671 0fbb 6bd8 3139
00000180: d9c0 fcbb 526e 313b db5d fa3b 609f b5bc
00000190: cd10 bcbc 7246 d63b 2cca 11bc 124e 8b3c
000001a0: 746b 04bc 78e0 2abc bcd6 8dbc 9d7b 323a
000001b0: 6e3c 40bc 8a0d b1ba 6507 79ba 2b0a e8bb
000001c0: d5e3 5b3b 89b7 86bc 202d e6ba 24ab b93a
000001d0: cdc0 24bb efad 09bc 01b8 823a 34fc 1abc
000001e0: 7abe 3c3c 70c8 2c38 e082 f73c a6df 5dbc
000001f0: 8af8 18bc e869 563c 47f5 4fbc 7740 b4bb
00000200: ef33 4d3c fa9c c13b 8930 b13a b93c 20bb
00000210: e22d a53c 0284 3fbc 0851 99bc 8c3c ccbb
00000220: 9556 1b3c 364f d1ba fcc4 d43b f889 ee3b
00000230: 8120 b6bc e858 133c 5471 ad3a 3503 39bb
00000240: 2f88 473c d51c d8bb 82e2 e03a 8c6f ad3c
00000250: 35e6 c93b 92a3 adbb f47a d3ba ba5f ab3c
00000260: e866 833c 12af 4c3c 6d86 29bc 453c 0c3b
00000270: 1b3c 4b3c 12cc b8ba 8ed9 6abc e5dd 2bbc
00000280: 5a6d ea3b ad77 e53a 75b6 48bc 7cad 133c
00000290: f90d 38bc 504e 1d3c e841 bdbc d08b b9bb
000002a0: 0b16 a6bb 6e11 4d3c cbc5 78bb d104 49bc
000002b0: f435 c9bb 4830 3dbc f3ee 803a 6ebd a0bc
000002c0: 9f38 25bc 7675 e0bc 330b 3cbb 416a 563c
000002d0: 79ec 0e3c c481 13bc 1d7e f03b 34a7 b839
000002e0: 6f1e ccbb bfbd b9bb 248f a9bc ea39 93bc
000002f0: 2f4a 5ebb cc14 b23c 83a4 473c a14b 333c
00000300: 9637 943b 75fb 94bc 3423 b9bc e02f 51bb
00000310: db25 843b 7c7c 8d3c cdfb 8cbc 3400 3abc
00000320: b8f6 dabb 4dc5 2d3c 422c 90bc fbdf 9ebc
00000330: 5e13 1dbc 9c84 2d3c 3bf9 05bc 7a28 81bc
00000340: dba9 ff3b e8c8 5b3c 73de 8d3c 9b19 8ebb
00000350: 78e1 a6bb 74aa 633c 5833 2b3c 2a09 09bc
00000360: cd03 993c 7d40 7c3c 572b 743b ee78 5bbc
00000370: a9df 153c eedd f1b9 1339 f1bb 663d a73a
00000380: 07c5 173c f4a4 a83c 4e31 3b3c 842b 833a
00000390: 06eb 26ba dc73 66bc 8cd0 0c3c 6741 8a3a
000003a0: e605 a9bb 60c2 2a3c 760d 99bc e084 973b
000003b0: 4900 d5bb 2294 09bb c6ec 83bb 0ffe 9ebb
000003c0: 46ca 64bb b2fd 6dbb 1167 563c ab08 32bc
000003d0: f1a3 d63b 15d7 3cbb e471 a33b 2fe7 18bc
000003e0: 1443 00bb 50b5 28bb 1cf2 b13b efe3 6cbb
000003f0: 9b04 133c f260 a43c eacd 0fbc 0c3a 79bb

network.1.running_mean f4 [256]
0.09181911 0.18172249 -0.23715898 -0.21392623 0.25627026 0.12168864 0.276389 0.224596
-0.0315483 0.36917728 0.19392474 -0.22861207 -0.2916785 -0.23473816 0.35229206 -0.121892035
-0.10166617 0.12245058 -0.22496894 0.22232787 -0.20932442 -0.47904435 0.16022108 -0.17117321
-0.25848138 0.17272267 0.08432605 0.27260917 0.3055303 -0.12583502 -0.22779797 0.04699503
-0.0015490167 -0.18505852 0.27145505 -0.20528987 -0.08188878 0.40445417 -0.2847109 0.11291885
0.17620072 0.1318473 0.22314054 0.06536385 -0.15108174 0.07674592 0.0065996605 0.0472352
0.11252581 -0.11223237 0.19654286 -0.31632623 -0.057759278 -0.03704079 -0.21622935 0.085322015
-0.04568241 -0.12413803 -0.07054895 -0.11901096 0.18713872 -0.15339628 0.15103716 0.10163447
0.025585249 -0.19968806 0.24217093 0.11250704 0.09677383 0.20452642 -0.5320792 -0.26605263
0.18141592 -0.40826252 0.08840323 0.3015609 0.20584075 -0.18338647 -0.3254356 -0.1965277
-0.06616515 0.2850205 0.23997444 -0.30883187 0.091663346 -0.38936433 0.21275967 -0.12662934
-0.09193066 0.024859574 0.11631511 -0.12751524 -0.091350734 0.07745582 0.07541113 0.07295182
0.015511043 0.42973202 0.23650104 -0.1633412 0.31053537 0.2627326 -0.09009336 0.23398301
0.12667818 -0.13497403 0.11439529 0.08605302 0.180193 -0.21842587 -0.022059897 -0.12939861
-0.15469337 0.1025397 0.23878035 -1.2665987e-05 -0.19071707 0.28567588 -0.05162213 0.008267597
0.3527757 -0.3585328 -0.030087026 -0.3127699 0.042579427 -0.21222572 0.22219563 0.03185314
-0.16737123 0.2630068 -0.011214038 -0.12418184 -0.26862687 0.14917773 0.31606847 0.061463237
-0.35645247 0.12981202 -0.27846682 -0.06679408 0.010188223 0.081004135 -0.04422808 0.19770736
-0.09179901 0.2383222 -0.2575208 -0.22742672 -0.22769243 -0.1725814 0.080349654 0.1341089
0.02233195 -0.09511136 0.32877445 0.03805039 0.091379225 0.22607434 0.040334616 -0.08759629
-0.043042514 -0.13693455 -0.055509 -0.0939467 0.263302 -0.08352433 0.23856947 0.27584648
0.18224347 -0.20873775 -0.09592825 -0.015416872 -0.0512069 0.2155844 -0.002594743 -0.20036443
0.1878582 0.27662593 -0.48249587 -0.3603892 -0.036871932 -0.12606521 0.02389967 0.13746776
-0.16554262 -0.05646925 -0.046205312 0.21726094 0.15897912 -0.16378102 0.18503267 0.18271431
-0.046459593 0.13760309 -0.25222507 0.0949748 0.022312324 0.008633263 0.24282986 -0.18080446
0.35369638 0.11236038 -0.058300592 0.0150557235 -0.14578076 -0.27964938 -0.24177365 -0.06528312
-0.32290182 0.10564643 -0.063185215 0.0031781122 0.24763453 -0.21450451 0.0005746102 -0.47250882
0.05847551 -0.27927023 -0.089565985 -0.39042154 -0.02743711 0.03587699 0.1674463 -0.13461518
-0.27370307 0.20306142 -0.1302385 -0.3969859 -0.047428146 0.047762528 0.08501509 0.15883097
0.19225186 0.059704438 0.13464887 0.26676697 -0.09276335 -0.14435509 -0.51944375 0.10609804
-0.10744513 -0.14483233 0.0060477536 -0.0802915 -0.065333694 0.02728222 -0.28239176 -0.0073811784
-0.06748848 0.1202919 -0.31648567 -0.07447139 -0.35955358 -0.17955828 0.11190586 -0.13456541
00000000: a80b bc3d 7615 3a3e ced9 72be 7a0f 5bbe
00000010: db35 833e e537 f93d dc82 8d3e 7efc 653e
00000020: ca38 01bd ce04 bd3e 3594 463e 4819 6abe
00000030: e256 95be 335f 70be a05f b43e 88a2 f9bd
00000040: 5a36 d0bd 5fc7 fa3d 425e 66be eba9 633e
00000050: 2459 56be 4d45 f5be ff10 243e 0848 2fbe
00000060: ac57 84be 36de 303e 23b3 ac3d 6e93 8b3e
00000070: 786e 9c3e e5da 00be df43 69be dc7d 403d
00000080: 6008 cbba fb7f 3dbe 28fc 8a3e 8237 52be
00000090: 4eb5 a7bd 9e14 cf3e a1c5 91be ff41 e73d
000000a0: f66d 343e fb02 073e f47e 643e 7bdd 853d
000000b0: 2cb5 1abe f72c 9d3d f741 d83b b279 413d
000000c0: ef73 e63d 16da e5bd 8842 493e 83f5 a1be
000000d0: fe94 6cbd 15b8 17bd 3a6b 5dbe 4fbd ae3d
000000e0: 7b1d 3bbd 143c febd f87b 90bd 05bc f3bd
000000f0: 4ba1 3f3e ea13 1dbe 7ca9 1a3e bc25 d03d
00000100: 2898 d13c 077b 4cbe a8fb 773e 176a e63d
00000110: 5c31 c63d 606f 513e 5836 08bf 0d38 88be
00000120: 18c5 393e c907 d1be c10c b53d 3166 9a3e
00000130: ebc7 523e aac9 3bbe 7f9f a6be 8f3e 49be
00000140: 9881 87bd 35ee 913e dcbb 753e 361f 9ebe
00000150: feb9 bb3d c35a c7be acdd 593e 1fab 01be
00000160: 2446 bcbd 4ea6 cb3c 9e36 ee3d 5b93 02be
00000170: 1816 bbbd 28a1 9e3d 2771 9a3d c467 953d
00000180: 0822 7e3c d605 dc3e 542d 723e ea42 27be
00000190: 7efe 9e3e e384 863e de82 b8bd 3e99 6f3e
000001a0: edb7 013e a236 0abe 1448 ea3d 913c b03d
000001b0: 8484 383e 08ab 5fbe f5b6 b4bc 1281 04be
000001c0: f067 1ebe 5600 d23d d682 743e 0080 54b7
000001d0: 564b 43be 1c44 923e ba71 53bd d174 073c
000001e0: 049f b43e 9c91 b7be 1179 f6bc 6023 a0be
000001f0: c467 2e3d b351 59be 4087 633e 7078 023d
00000200: 5d63 2bbe d4a8 863e 16bb 37bc 0c53 febd
00000210: 7689 89be 0cc2 183e bad3 a13e e0c0 7b3d
00000220: f080 b6be 71ed 043e 3493 8ebe 56cb 88bd
00000230: 81ec 263c 7fe5 a53d 8128 35bd cc73 4a3e
00000240: 1f01 bcbd bc0a 743e c4d9 83be 8de2 68be
00000250: 3428 69be 2eb9 30be 5c8e a43d d853 093e
00000260: 7ef1 b63c bfc9 c2bd 2055 a83e bada 1b3d
00000270: 0825 bb3d 0880 673e e935 253d af65 b3bd
00000280: 594d 30bd 9238 0cbe 685d 63bd 2167 c0bd
00000290: 85cf 863e ce0e abbd 8e4b 743e c03b 8d3e
000002a0: 089e 3a3e 59bf 55be 0876 c4bd 0c97 7cbc
000002b0: 54be 51bd 28c2 5c3e 900c 2abb 552c 4dbe
000002c0: e65d 403e eaa1 8d3e b309 f7be ef84 b8be
000002d0: 0607 17bd 3d17 01be 3ec9 c33c 59c4 0c3e
000002e0: 0184 29be 4d4c 67bd c841 3dbd a779 5e3e
000002f0: 6ccb 223e 36b6 27be 3479 3d3e 7619 3b3e
00000300: 6a4c 3ebd d3e7 0c3e a523 81be 2682 c23d
00000310: 56c8 b63c 8872 0d3c 64a8 783e ce24 39be
00000320: b117 b53e 331d e63d 9acc 6ebd 48ac 763c
00000330: 8d47 15be 342e 8fbe 8393 77be 28b3 85bd
00000340: 6353 a5be 285d d83d 4067 81bd e047 503b
00000350: e893 7d3e 12a7 5bbe 70a1 163a adec f1be
00000360: 0484 6f3d 82fc 8ebe 5f6e b7bd 55e5 c7be
00000370: cac3 e0bc c0f3 123d 0b77 2b3e 90d8 09be
00000380: cf22 8cbe 55ef 4f3e 3e5d 05be bc41 cbbe
00000390: 0444 42bd a4a2 433d 641c ae3d 96a4 223e
000003a0: acdd 443e a48c 743d 65e1 093e ae95 883e
000003b0: b6fa bdbd d2d1 13be 44fa 04bf ee49 d93d
000003c0: 310c dcbd ed4e 14be 3c2c c63b df6f a4bd
000003d0: accd 85bd f67e df3c a795 90be d0dd f1bb
000003e0: 6637 8abd 9a5b f63d 690a a2be 7584 98bd
000003f0: 6817 b8be 20de 37be e62e e53d 84cb 09be

network.1.running_var f4 [256]
5.7630267 6.5786085 6.314832 1.9981781 5.377633 8.036675 7.037419 5.2079077
6.690257 5.3939757 6.4630136 8.436285 5.181989 12.619634 4.6827507 7.774001
5.0436406 6.2078195 7.0756235 4.9720054 4.113507 4.1638317 3.1786058 6.429203
4.941887 4.992038 4.2349453 6.7491717 5.2621584 2.5428376 5.209205 5.716009
4.8692474 3.3148115 3.6924844 6.053241 3.7894087 10.429741 3.7624617 5.4864397
7.2941475 4.3910055 6.6295943 3.6034746 2.4052496 5.3536158 3.725207 8.373471
8.880374 5.2446866 5.17004 4.2366853 3.629784 4.4295516 3.344968 5.912046
3.3977313 4.272884 3.8652318 6.4696097 5.8112926 8.036535 14.206787 6.6689525
4.0183806 8.234097 3.6904438 3.7256708 4.946687 4.5539274 5.2685614 5.122775
4.6733923 5.8168473 4.114924 9.187186 4.60798 5.391657 4.689067 3.5842738
3.0995574 5.674072 2.5868614 5.5794535 2.733008 3.3842678 4.8098726 5.3049498
3.1981304 3.7063968 5.590003 5.737043 4.876095 5.4914026 6.6699133 3.9598694
7.0943213 9.804232 5.5333695 7.5414667 6.075267 6.865178 6.331397 11.35558
3.8325202 3.7976022 5.032722 4.1180515 7.0435286 3.290611 2.7522726 4.0497003
4.4675245 4.8868594 4.4374595 3.321154 6.6696577 11.037139 9.264421 6.7723093
7.7838335 3.6404884 4.6355333 6.7197895 10.259931 4.155157 5.591648 4.4986725
3.740938 8.012143 5.2802944 8.13841 8.364687 7.062246 4.6316175 6.869025
13.8447695 3.9438353 4.9683504 4.845204 6.610261 5.130396 2.279771 4.0248923
6.242133 8.591307 4.960323 3.7537599 3.8150678 8.001523 5.7217274 4.7807713
4.3704224 4.979539 3.305396 3.6582448 5.933088 5.7265205 5.0571527 4.4578395
3.91533 6.7400146 4.454556 4.4072676 5.8677497 5.41335 7.179946 5.6551285
3.7043567 2.542219 5.523879 5.306272 4.7399983 4.8778725 6.1443014 2.999104
4.489895 7.2626047 8.614225 12.0182495 4.215222 9.89592 2.5564365 8.757456
4.8650556 3.108997 8.844703 4.977422 8.133367 3.9882193 6.3238907 5.75219
5.158097 6.9051657 4.1514225 3.7534645 4.227358 5.6111875 6.6585774 4.725169
5.1955466 7.9017873 3.3035676 5.894528 5.575104 5.615076 5.9019127 6.3980856
5.6363254 12.368458 6.49271 5.373452 6.57303 4.314844 4.421287 5.603269
8.159899 5.4989543 4.7286854 4.03211 2.1484609 9.597387 2.0984042 3.6696913
6.621011 7.783829 3.7688732 5.2993326 3.7368479 5.385393 6.2024574 4.5704956
3.8630702 7.798438 5.166684 11.893758 5.8487096 3.2532248 9.568687 6.2433023
5.3605843 8.051367 6.746414 5.0562863 4.707617 9.037525 3.525101 5.8854628
4.9317966 7.2682796 5.325483 5.2112083 5.9448695 8.28902 6.358792 3.1091287
00000000: b76a b840 f683 d240 1b13 ca40 4dc4 ff3f
00000010: 9215 ac40 3996 0041 8932 e140 2ea7 a640
00000020: 9616 d640 739b ac40 02d1 ce40 06fb 0641
00000030: dbd2 a540 05ea 4941 18d9 9540 9ec4 f840
00000040: 8165 a140 75a6 c640 826b e240 ab1a 9f40
00000050: d9a1 8340 1c3e 8540 476e 4b40 08bc cd40
00000060: f023 9e40 c6be 9f40 ac84 8740 37f9 d740
00000070: 9a63 a840 dabd 2240 cfb1 a640 8ce9 b640
00000080: e0d0 9b40 df25 5440 aa51 6c40 26b4 c140
00000090: ac85 7240 38e0 2641 2ccc 7040 ea90 af40
000000a0: a869 e940 1e83 8c40 a325 d440 549f 6640
000000b0: 9cef 1940 d250 ab40 cb69 6e40 bdf9 0541
000000c0: 0316 0e41 79d4 a740 f870 a540 ed92 8740
000000d0: 624e 6840 e3be 8d40 f513 5640 7b2f bd40
000000e0: 6e74 5940 77bb 8840 f55f 7740 0b07 cf40
000000f0: 1cf6 b940 a695 0041 004f 6341 0f68 d540
00000100: 9396 8040 dcbe 0341 3b30 6c40 6471 6e40
00000110: 434b 9e40 c6b9 9140 0e98 a840 c6ed a340
00000120: 6e8c 9540 9d23 ba40 75ad 8340 b7fe 1241
00000130: 9274 9340 7488 ac40 d60c 9640 be64 6540
00000140: 265f 4640 ff91 b540 238f 2540 e28a b240
00000150: 9ae9 2e40 d897 5840 7aea 9940 26c2 a940
00000160: 2bae 4c40 9b35 6d40 4ee1 b240 db95 b740
00000170: f808 9c40 92b9 af40 ee6f d540 806e 7d40
00000180: ae04 e340 22de 1c41 5d11 b140 b253 f140
00000190: 9668 c240 8aaf db40 ce9a ca40 75b0 3541
000001a0: 0348 7540 ea0b 7340 0f0c a140 14c7 8340
000001b0: 9664 e140 5f99 5240 3c25 3040 2597 8140
000001c0: f6f5 8e40 2761 9c40 abff 8d40 ca8d 5440
000001d0: d66d d540 1f98 3041 123b 1441 c2b6 d840
000001e0: 2a15 f940 c3fd 6840 4a56 9440 8408 d740
000001f0: ad28 2441 0cf7 8440 c8ee b240 20f5 8f40
00000200: 876b 6f40 bd31 0041 2cf8 a840 ed36 0241
00000210: c2d5 0541 ebfd e140 3636 9440 0ecf db40
00000220: 2d84 5d41 cc67 7c40 bafc 9e40 e90b 9b40
00000230: 4287 d340 342c a440 c5e7 1140 ebcb 8040
00000240: 8ebf c740 fe75 0941 f7ba 9e40 9a3d 7040
00000250: 122a 7440 3d06 0041 6418 b740 14fc 9840
00000260: 80da 8b40 6258 9f40 9c8b 5340 af20 6a40
00000270: dbdb bd40 a83f b740 32d4 a140 9fa6 8e40
00000280: c494 7a40 33ae d740 b98b 8e40 5608 8d40
00000290: 9bc4 bb40 2a3a ad40 1ec2 e540 d0f6 b440
000002a0: 2e14 6d40 b7b3 2240 9ec3 b040 fbcc a940
000002b0: 11ae 9740 8817 9c40 1e9e c440 52f1 3f40
000002c0: 38ad 8f40 4267 e840 ded3 0941 c04a 4041
000002d0: 19e3 8640 b055 1e41 a89c 2340 8a1e 0c41
000002e0: 89ae 9b40 cff9 4640 e783 0d41 0b47 9f40
000002f0: 4522 0241 fc3e 7f40 505d ca40 f111 b840
00000300: 210f a540 1ef7 dc40 74d8 8440 c338 7040
00000310: 8446 8740 d98e b340 1113 d540 9634 9740
00000320: eb41 a640 71db fc40 a76d 5340 f99f bc40
00000330: 4167 b240 b4ae b340 78dc bc40 1ebd cc40
00000340: c75c b440 34e5 4541 48c4 cf40 52f3 ab40
00000350: 4356 d240 3413 8a40 2f7b 8d40 fb4d b340
00000360: f28e 0241 6ff7 af40 6451 9740 0c07 8140
00000370: 6280 0940 e68e 1941 414c 0640 39dc 6a40
00000380: 52df d340 2115 f940 3835 7140 2294 a940
00000390: 8428 6f40 2455 ac40 887a c640 8041 9240
000003a0: 8b3c 7740 ce8c f940 7a55 a540 d54c 3e41
000003b0: a128 bb40 d634 5040 5819 1941 22c9 c740
000003c0: e889 ab40 66d2 0041 a0e2 d740 19cd a140
000003d0: cca4 9640 b499 1041 419b 6140 b655 bc40
000003e0: 47d1 9d40 bf95 e840 5b6a aa40 38c2 a640
000003f0: 5f3c be40 d39f 0441 397b cb40 f7fb 4640

network.4.weight f4 [128, 256]
-0.2629996 -0.063262455 0.039252467 -0.43502766 0.2268002 -0.14560862 0.22956409 -0.0249249
-0.051108126 -0.22606653 0.18522647 0.14758444 -0.052096598 0.13986279 0.20488031 0.21739376
0.08676839 0.18227613 -0.062090226 -0.34487623 -0.16381253 -0.06113006 0.04590326 -0.020662645
-0.19515619 -0.22772405 -0.018160235 0.058433425 0.059529047 0.12400862 -0.11596406 -0.12055695
-0.15361021 0.007833796 -0.173455 0.0052935593 0.041306123 -0.11385159 0.0033773317 0.15333542
0.32122564 -0.21066898 -0.015019906 0.089813635 -0.0893392 0.09121057 -0.10074634 0.13125038
0.11850413 0.08985134 0.11299463 0.19236495 -0.147559 0.03636386 0.12483317 0.10383336
0.18340427 -0.15653609 0.10901004 0.079546556 0.13692513 -0.02740964 -0.0025209752 0.04070582
0.051596645 -0.07560794 0.16379891 -0.12949742 0.15980007 0.13838074 -0.06717303 -0.2525413
0.0006820744 -0.1682926 0.053412795 0.1276799 -0.10370138 0.035492223 0.05924834 -0.024351977
-0.07607685 0.21108013 -0.033528987 0.04110155 0.15210485 -0.17419872 -0.04219694 0.032269016
0.17726271 -0.15180033 0.2389176 0.116794124 -0.033215858 -0.28625152 0.098818034 -0.0071411557
0.21811786 0.09552333 -0.0891211 -0.037409827 -0.052658994 0.033082306 -0.13254045 -0.07363119
-0.029747931 -0.1157021 0.071984425 0.07808382 -0.03558709 -0.100702554 -0.17230147 -0.06180193
0.1011492 -0.046005607 0.08445479 0.26578626 0.108384535 -0.014531803 0.00047860466 0.064446464
0.016789084 -0.13986504 -0.049423587 0.020840304 -0.054186817 0.09841061 0.11832772 -0.07583364
-0.09180174 -0.036089025 -0.21323048 0.046682686 0.08205917 0.086474515 0.038684215 -0.11218263
0.07119088 0.015884696 0.044581987 -0.025302399 -0.034511425 0.18464105 0.22745042 0.17499767
0.17911185 0.10345299 -0.20580779 0.03938356 -0.13352545 0.2356438 -0.044970166 -0.20610547
0.007652113 0.010857833 0.035067517 0.17353226 0.1437784 0.13846931 0.0659313 0.0025908523
-0.036807105 -0.008348593 0.010136639 0.049638283 0.005072159 -0.08246948 -0.016053274 -0.083191976
0.05905109 -0.038662344 -0.13722432 -0.07199842 0.007466953 0.099616624 -0.15488794 -0.077852264
0.033901546 -0.023163063 0.10656449 0.0013952489 0.057471044 0.18427297 -0.069958806 0.09440912
-0.003326227 -0.04114803 -0.031199189 0.07729926 0.010496923 0.07234684 0.06902972 -0.024758024
-0.025782112 -0.018763559 0.24547942 -0.15190901 -0.12306111 -0.10593764 0.026867924 0.06865849
0.03864186 -0.06050147 0.14276569 -0.05466665 0.061027996 -0.14763036 -0.11433468 -0.07267467
-0.12576172 0.113447525 -0.023677085 -0.14550132 0.17401543 0.02014623 -0.038185924 0.06901955
0.018718768 0.1376202 0.17806858 0.026508162 -0.026285615 -0.16780584 -0.08441409 0.014022182
-0.06114477 -0.20194352 -0.13252266 0.011570885 -0.108276665 0.2750591 0.24705146 -0.0927167
0.23356684 -0.050864812 -0.06407967 -0.15732418 0.0941765 -0.0070503345 -0.013552879 -0.07628376
0.21622203 0.012504848 -0.024199083 0.11650691 0.043739613 0.090476654 0.23378828 0.025333026
-0.18812162 -0.22248195 -0.019076424 0.103343695 0.12862924 -0.09322509 0.012241449 0.2396589
00000000: e2a7 86be bf8f 81bd 32c7 203d f2bb debe
00000010: 503e 683e 6d1a 15be d912 6b3e 4e2f ccbc
00000020: c156 51bd fc7d 67be 02ac 3d3e 6020 173e
00000030: 3e63 55bd 3138 0f3e 25cc 513e 789c 5e3e
00000040: a0b3 b13d 98a6 3a3e 5252 7ebd 9e93 b0be
00000050: 79be 27be 8463 7abd 0f05 3c3d b544 a9bc
00000060: 06d7 47be 7e30 69be c6c4 94bc e357 6f3d
00000070: bbd4 733d 3bf8 fd3d 917e edbd 90e6 f6bd
00000080: ff4b 1dbe 5259 003c 309e 31be 9875 ad3b
00000090: 9c30 293d 062b e9bd 3956 5d3b f603 1d3e
000000a0: b077 a43e 9cb9 57be 0d16 76bc 36f0 b73d
000000b0: 78f7 b6bd 9bcc ba3d 1954 cebd 8066 063e
000000c0: 4bb2 f23d fb03 b83d bb69 e73d 51fb 443e
000000d0: b519 17be 45f2 143d 88a8 ff3d 96a6 d43d
000000e0: 54ce 3b3e ff4a 20be a840 df3d 4ee9 a23d
000000f0: 1a36 0c3e 2e8a e0bc f236 25bb 25bb 263d
00000100: 0157 533d 56d8 9abd e7ba 273e f99a 04be
00000110: a1a2 233e aeb3 0d3e 0392 89bd 184d 81be
00000120: 3dcd 323a e554 2cbe 60c7 5a3d 85be 023e
00000130: 6461 d4bd 4b60 113d 63ae 723d cc7d c7bc
00000140: 2ece 9bbd 6425 583e b155 09bd 195a 283d
00000150: 60c1 1b3e 2661 32be b3d6 2cbd 842c 043d
00000160: 5b84 353e 8c71 1bbe d1a6 743e c231 ef3d
00000170: 5a0d 08bd 8f8f 92be 1c61 ca3d 5b00 eabb
00000180: 4a5a 5f3e bca1 c33d 2085 b6bd 0c3b 19bd
00000190: f5b0 57bd 5081 073d afb8 07be f3cb 96bd
000001a0: efb1 f3bc 39f5 ecbd 926c 933d 69ea 9f3d
000001b0: c5c3 11bd 243d cebd cc6f 30be 0524 7dbd
000001c0: 5027 cf3d 6070 3cbd a2f6 ac3d 2315 883e
000001d0: b6f8 dd3d cd16 6ebc 3bed fa39 82fc 833d
000001e0: 4389 893c c838 0fbe 6370 4abd 49b9 aa3c
000001f0: fff2 5dbd 808b c93d ce55 f23d ab4e 9bbd
00000200: 8d02 bcbd 16d2 13bd 1759 5abe 5836 3f3d
00000210: a30e a83d 8d19 b13d 5773 1e3d 02c0 e5bd
00000220: 86cc 913d 9f20 823c 9a9b 363d fa46 cfbc
00000230: da5b 0dbd 8b12 3d3e c3e8 683e 9732 333e
00000240: 1969 373e 29df d33d 47bf 52be a850 213d
00000250: e5ba 08be 9c4c 713e a332 38bd 500d 53be
00000260: 94be fa3b 0de5 313c f5a2 0f3d 71b2 313e
00000270: a53a 133e e6ca 0d3e fd06 873d 4acb 293b
00000280: 0cc3 16bd 89c8 08bc 2514 263c 8351 4b3d
00000290: 5b34 a63b c2e5 a8bd 2882 83bc 8e60 aabd
000002a0: 8edf 713d 685c 1ebd 8884 0cbe e873 93bd
000002b0: 57ad f43b cd03 cc3d f29a 1ebe 0271 9fbd
000002c0: 59dc 0a3d 77c0 bdbc 7c3e da3d c9e0 b63a
000002d0: c266 6b3d 0eb2 3c3e 9046 8fbd 9259 c13d
000002e0: d4fc 59bb d68a 28bd 7195 ffbc 134f 9e3d
000002f0: 49fb 2b3c 942a 943d 745f 8d3d 57d1 cabc
00000300: 0235 d3bc 09b6 99bc f55e 7b3e 098e 1bbe
00000310: 7707 fcbd d5f5 d8bd 1f1a dc3c d39c 8c3d
00000320: ed46 1e3d 64d0 77bd 2b31 123e 23ea 5fbd
00000330: 7ef8 793d 6a2c 17be 4d28 eabd 75d6 94bd
00000340: aec7 00be 2d57 e83d 72f6 c1bc 4cfe 14be
00000350: 1a31 323e b509 a53c d868 1cbd 1f5a 8d3d
00000360: 1a58 993c 4fec 0c3e 9c57 363e a527 d93c
00000370: ee54 d7bc 4bd5 2bbe 4be1 acbd 4bbd 653c
00000380: f072 7abd 48ca 4ebe 05b4 07be cf93 3d3c
00000390: 28c0 ddbd 8cd4 8c3e 0ffb 7c3e 41e2 bdbd
000003a0: 252c 6f3e 9f57 50bd 343c 83bd 9719 21be
000003b0: 9cdf c03d 7e06 e7bb e50c 5ebc a93a 9cbd
000003c0: 4f69 5d3e 22e1 4c3c 283d c6bc 2d9b ee3d
000003d0: 4f28 333d d34b b93d 3266 6f3e 3587 cf3c
000003e0: f4a2 40be 4fd2 63be 2946 9cbc dca5 d33d
000003f0: 62b7 033e ccec bebd 5c90 483c 2569 753e

network.4.bias f4 [128]
-3.062401e-05 -5.7385754e-05 -1.2497914e-05 -7.592562e-05 3.6010042e-05 2.911314e-05 2.8078324e-05 -6.424328e-05
-9.49878e-05 5.3383083e-05 3.5678102e-05 8.998097e-05 -4.1828384e-06 4.2164298e-05 1.9634706e-05 8.614059e-06
-8.5963125e-05 -7.866949e-05 -8.9077264e-05 -3.352911e-05 -2.5928179e-05 5.246219e-05 -2.4069966e-05 -0.00013804784
2.6094058e-06 -3.615203e-05 4.3323053e-07 4.00722e-05 1.2565724e-05 -1.7047929e-05 7.2746974e-05 1.8541208e-05
-1.5192938e-05 -0.00010800242 -0.00018497014 2.1037424e-05 1.7812325e-05 -9.853433e-06 -3.16745e-05 -9.683754e-06
6.667814e-05 3.2441058e-05 8.40533e-06 -3.7756927e-05 6.2199775e-05 7.7356184e-05 1.3560168e-05 3.9432816e-06
1.3612803e-06 5.050413e-06 -5.2422174e-06 -0.00026394398 -0.00012263455 2.5046747e-06 1.39529875e-05 4.2235835e-05
1.6437178e-05 6.318855e-05 6.48761e-05 -9.026652e-06 -2.6516944e-05 7.357214e-05 2.3319544e-06 -7.3277864e-05
-1.8605502e-05 -1.1267083e-06 -2.9241373e-06 2.2594437e-05 -8.0001e-05 5.352019e-05 -6.447189e-05 -4.0297273e-05
4.364836e-05 7.698542e-06 -4.9511862e-05 -2.5083977e-05 -1.2683271e-05 -2.8608994e-05 -1.7130344e-05 6.9818634e-06
8.828782e-05 -2.4537332e-05 1.9826024e-05 2.579649e-05 1.955581e-05 1.278413e-05 -1.8395544e-05 -1.42844965e-05
-5.468361e-05 -7.2474526e-05 -9.5571395e-06 5.4791326e-07 5.038447e-05 5.7861635e-06 -4.488557e-05 5.324731e-05
6.3572996e-05 6.765958e-05 -7.101173e-05 -1.19951255e-05 3.3269254e-05 -2.8573728e-05 -9.287701e-06 2.188474e-05
-1.8293413e-05 1.0472098e-05 -1.9852741e-05 -6.455977e-05 1.9103918e-06 -8.05872e-05 1.48049685e-05 2.5800698e-05
-3.2917364e-05 1.898244e-05 2.8435796e-05 2.2499655e-05 1.6932172e-06 2.0432686e-05 1.0709153e-05 1.42469835e-05
1.1902256e-05 -2.1480414e-06 -1.657328e-05 -1.1513524e-05 -2.625537e-05 -2.3152244e-05 -7.614146e-05 6.603559e-05
00000000: 4872 00b8 7cb1 70b8 22ae 51b7 423a 9fb8
00000010: 7d09 1738 fe37 f437 be89 eb37 59ba 86b8
00000020: 3034 c7b8 a6e7 5f38 12a5 1538 2ab4 bc38
00000030: 4f5a 8cb6 92d9 3038 36b5 a437 1a85 1037
00000040: 1a47 b4b8 5cfb a4b8 fece bab8 9ca1 0cb8
00000050: 5780 d9b7 d90a 5c38 dce9 c9b7 efc0 10b9
00000060: 401d 2f36 f2a1 17b8 c096 e834 3213 2838
00000070: 60d1 5237 2602 8fb7 bc8f 9838 f188 9b37
00000080: 2ce5 7eb7 5c7f e2b8 8bf4 41b9 8679 b037
00000090: ad6b 9537 2c50 25b7 3cda 04b8 6877 22b7
000000a0: 8ed5 8b38 5211 0838 9e04 0d37 315d 1eb8
000000b0: 4071 8238 493a a238 7a80 6337 8850 8436
000000c0: 3cb5 b635 b876 a936 4ee6 afb6 f661 8ab9
000000d0: 7697 00b9 fc15 2836 a017 6a37 6226 3138
000000e0: 92e2 8937 1884 8438 170e 8838 2d71 17b7
000000f0: b470 deb7 be4a 9a38 ac7e 1c36 c1ac 99b8
00000100: 0313 9cb7 6739 97b5 4c3c 44b6 2f89 bd37
00000110: 36c6 a7b8 de7a 6038 1535 87b8 de04 29b8
00000120: 1213 3738 fc28 0137 f5aa 4fb8 6e6b d2b7
00000130: 3cca 54b7 59fd efb7 22b3 8fb7 c045 ea36
00000140: 2a27 b938 85d5 cdb7 1050 a637 8a65 d837
00000150: c80b a437 6c7b 5637 2150 9ab7 72a7 6fb7
00000160: 145c 65b8 77fd 97b8 9a57 20b7 5014 1335
00000170: ea53 5338 c426 c236 8443 3cb8 dd55 5f38
00000180: 7e52 8538 76e4 8d38 22ec 94b8 ac3e 49b7
00000190: 978a 0b38 9db1 efb7 5fd2 1bb7 1f95 b737
000001a0: ce74 99b7 52b1 2f37 7089 a6b7 4364 87b8
000001b0: 4834 0036 ec00 a9b8 db62 7837 946e d837
000001c0: c010 0ab8 7b3c 9f37 6889 ee37 a4bd bc37
000001d0: 8042 e335 dc66 ab37 76ab 3337 5406 6f37
000001e0: cdaf 4737 1227 10b6 d906 8bb7 362a 41b7
000001f0: fa3e dcb7 1137 c2b7 23ae 9fb8 967c 8a38

network.5.weight f4 [128]
1.0111926 1.0008041 0.9836776 0.99656177 0.9823342 0.9990942 0.98277885 1.0158961
1.0070754 0.9973892 0.9842836 1.0014212 0.99569446 1.0130522 0.9958644 0.9875086
0.99424183 1.0217732 1.0096017 1.0090666 0.9591885 0.98602134 0.98958397 1.0191371
0.9766192 1.0071291 1.0142952 0.99076265 1.0125219 0.9863167 1.0054662 0.992232
1.0206016 0.9975933 0.9984204 0.97901744 1.02712 1.0124209 0.99626786 0.995366
1.0194533 0.99005586 0.99940246 1.0012782 1.0035748 1.0021447 1.004337 0.9713157
1.0242708 1.0093973 1.0050402 1.0051429 1.0201591 0.98058224 0.98671997 1.0070345
0.9898979 0.984946 1.0005141 1.0082577 0.96953976 0.9891164 0.98331666 1.0100633
1.000828 0.9928406 1.0152317 1.0221275 0.9828906 1.005974 0.96727926 0.9910585
0.9886087 1.0072361 1.009106 1.0157942 0.97902185 1.0143156 1.012956 1.0107243
0.99740905 1.006714 0.97751665 0.99540114 1.000358 1.0060283 0.9923712 0.99341756
0.9933422 1.0124694 0.9755152 0.99664414 0.9944204 0.99515486 0.9684366 0.99835086
0.9967717 1.0001718 0.98812866 1.007274 1.0214348 1.0047964 1.0265855 0.9958656
0.9973711 0.986328 1.013625 1.0364617 0.97915745 0.9879537 1.014949 1.0356983
0.98365134 1.02086 1.0058669 0.99525344 0.9806288 0.9877407 0.9867179 1.0053358
1.0172572 1.0038735 1.0158676 0.99709165 1.0142307 1.0051711 1.0142101 0.9986301
00000000: c26e 813f 591a 803f 4cd2 7b3f ac1e 7f3f
00000010: 417a 7b3f a3c4 7f3f 6597 7b3f e208 823f
00000020: d9e7 803f e654 7f3f 03fa 7b3f 922e 803f
00000030: d5e5 7e3f b2ab 813f f8f0 7e3f 5dcd 7c3f
00000040: a286 7e3f 77c9 823f a13a 813f 1829 813f
00000050: 618d 753f e56b 7c3f 6055 7d3f 1673 823f
00000060: b703 7a3f 9be9 803f 6dd4 813f 9fa2 7d3f
00000070: 519a 813f 407f 7c3f 1eb3 803f eb02 7e3f
00000080: 13a3 823f 4662 7f3f 7b98 7f3f e3a0 7a3f
00000090: ab78 833f 0297 813f 690b 7f3f 4ed0 7e3f
000000a0: 727d 823f 4d74 7d3f d7d8 7f3f e229 803f
000000b0: 2475 803f 4746 803f 1d8e 803f 25a8 783f
000000c0: 4e1b 833f ee33 813f 28a5 803f 86a8 803f
000000d0: 9394 823f 7007 7b3f ae99 7c3f 82e6 803f
000000e0: f369 7d3f 6c25 7c3f d910 803f 970e 813f
000000f0: c233 783f bb36 7d3f a4ba 7b3f c149 813f
00000100: 221b 803f cd2a 7e3f 1df3 813f 13d5 823f
00000110: b89e 7b3f c2c3 803f 9d9f 773f 03b6 7d3f
00000120: 7615 7d3f 1ded 803f 632a 813f 8b05 823f
00000130: 2da1 7a3f 18d5 813f 8ba8 813f 6a5f 813f
00000140: 3356 7f3f 01dc 803f 883e 7a3f 9cd2 7e3f
00000150: bb0b 803f 89c5 803f 0a0c 7e3f 9d50 7e3f
00000160: ad4b 7e3f 9998 813f 5dbb 793f 1224 7f3f
00000170: 5692 7e3f 78c2 7e3f 76eb 773f ec93 7f3f
00000180: 6e2c 7f3f a105 803f 00f6 7c3f 5bee 803f
00000190: 60be 823f 2b9d 803f 2767 833f 0cf1 7e3f
000001a0: b653 7f3f fe7f 7c3f 77be 813f c7aa 843f
000001b0: 10aa 7a3f 89ea 7c3f d9e9 813f c391 843f
000001c0: 93d0 7b3f 8aab 823f 3fc0 803f eec8 7e3f
000001d0: 7d0a 7b3f 93dc 7c3f 8b99 7c3f d8ae 803f
000001e0: 7c35 823f ed7e 803f f307 823f 6641 7f3f
000001f0: 50d2 813f 72a9 803f a3d1 813f 39a6 7f3f
